Model: "sequential_3"
_________________________________________________________________
Layer (type)                 Output Shape              Param #   
=================================================================
conv2d_18 (Conv2D)           (None, 28, 28, 64)        3200      
_________________________________________________________________
batch_normalization_15 (Batc (None, 28, 28, 64)        256       
_________________________________________________________________
max_pooling2d_3 (MaxPooling2 (None, 7, 7, 64)          0         
_________________________________________________________________
conv2d_19 (Conv2D)           (None, 7, 7, 128)         204928    
_________________________________________________________________
batch_normalization_16 (Batc (None, 7, 7, 128)         512       
_________________________________________________________________
conv2d_20 (Conv2D)           (None, 7, 7, 64)          204864    
_________________________________________________________________
batch_normalization_17 (Batc (None, 7, 7, 64)          256       
_________________________________________________________________
conv2d_21 (Conv2D)           (None, 7, 7, 64)          102464    
_________________________________________________________________
batch_normalization_18 (Batc (None, 7, 7, 64)          256       
_________________________________________________________________
conv2d_22 (Conv2D)           (None, 7, 7, 32)          100384    
_________________________________________________________________
batch_normalization_19 (Batc (None, 7, 7, 32)          128       
_________________________________________________________________
conv2d_23 (Conv2D)           (None, 7, 7, 128)         102528    
_________________________________________________________________
global_average_pooling2d_3 ( (None, 128)               0         
_________________________________________________________________
dropout_6 (Dropout)          (None, 128)               0         
_________________________________________________________________
dense_9 (Dense)              (None, 32)                4128      
_________________________________________________________________
dropout_7 (Dropout)          (None, 32)                0         
_________________________________________________________________
dense_10 (Dense)             (None, 32)                1056      
_________________________________________________________________
dense_11 (Dense)             (None, 10)                330       
=================================================================
Total params: 725,290
Trainable params: 724,586
Non-trainable params: 704
_________________________________________________________________
None
batch size: 20	learning rate: 0.001	max epochs: 350


items/class:  10  patience:  50
             precision recall  f1-score  support
0                    0      0     0.000      980
…
6                    0      0     0.000      958
7                    0      0     0.000     1028
8                    0      0     0.000      974
9                    0      0     0.000     1009
accuracy             -      -     0.114    10000
macro avg        0.011    0.1     0.020    10000
weighted avg     0.013  0.114     0.023    10000
mcc:  0.0
last epoch:  7

Model: "sequential_3"
_________________________________________________________________
Layer (type)                 Output Shape              Param #   
=================================================================
conv2d_18 (Conv2D)           (None, 28, 28, 64)        3200      
_________________________________________________________________
batch_normalization_9 (Batch (None, 28, 28, 64)        256       
_________________________________________________________________
max_pooling2d_3 (MaxPooling2 (None, 7, 7, 64)          0         
_________________________________________________________________
conv2d_19 (Conv2D)           (None, 7, 7, 128)         204928    
_________________________________________________________________
conv2d_20 (Conv2D)           (None, 7, 7, 64)          204864    
_________________________________________________________________
conv2d_21 (Conv2D)           (None, 7, 7, 64)          102464    
_________________________________________________________________
conv2d_22 (Conv2D)           (None, 7, 7, 32)          100384    
_________________________________________________________________
conv2d_23 (Conv2D)           (None, 7, 7, 128)         102528    
_________________________________________________________________
global_average_pooling2d_3 ( (None, 128)               0         
_________________________________________________________________
dropout_9 (Dropout)          (None, 128)               0         
_________________________________________________________________
dense_9 (Dense)              (None, 32)                4128      
_________________________________________________________________
batch_normalization_10 (Batc (None, 32)                128       
_________________________________________________________________
dropout_10 (Dropout)         (None, 32)                0         
_________________________________________________________________
dense_10 (Dense)             (None, 32)                1056      
_________________________________________________________________
batch_normalization_11 (Batc (None, 32)                128       
_________________________________________________________________
dropout_11 (Dropout)         (None, 32)                0         
_________________________________________________________________
dense_11 (Dense)             (None, 10)                330       
=================================================================
Total params: 724,394
Trainable params: 724,138
Non-trainable params: 256
_________________________________________________________________
None
batch size: 20	learning rate: 0.001	max epochs: 350


items/class:  10  patience:  150
             precision recall  f1-score  support
0                0.899  0.646     0.752      980
…
6                0.963  0.974     0.968      958
7                0.967  0.971     0.969     1028
8                0.966   0.96     0.963      974
9                0.979  0.966     0.973     1009
accuracy             -      -     0.972    10000
macro avg        0.972  0.972     0.972    10000
weighted avg     0.972  0.972     0.972    10000
mcc:  0.969
last epoch:  111

Model: "sequential_3"
_________________________________________________________________
Layer (type)                 Output Shape              Param #   
=================================================================
conv2d_18 (Conv2D)           (None, 28, 28, 64)        3200      
_________________________________________________________________
batch_normalization_6 (Batch (None, 28, 28, 64)        256       
_________________________________________________________________
max_pooling2d_3 (MaxPooling2 (None, 7, 7, 64)          0         
_________________________________________________________________
conv2d_19 (Conv2D)           (None, 7, 7, 128)         204928    
_________________________________________________________________
conv2d_20 (Conv2D)           (None, 7, 7, 64)          204864    
_________________________________________________________________
conv2d_21 (Conv2D)           (None, 7, 7, 64)          102464    
_________________________________________________________________
conv2d_22 (Conv2D)           (None, 7, 7, 32)          100384    
_________________________________________________________________
conv2d_23 (Conv2D)           (None, 7, 7, 128)         102528    
_________________________________________________________________
global_average_pooling2d_3 ( (None, 128)               0         
_________________________________________________________________
dropout_9 (Dropout)          (None, 128)               0         
_________________________________________________________________
dense_9 (Dense)              (None, 32)                4128      
_________________________________________________________________
batch_normalization_7 (Batch (None, 32)                128       
_________________________________________________________________
dropout_10 (Dropout)         (None, 32)                0         
_________________________________________________________________
dense_10 (Dense)             (None, 32)                1056      
_________________________________________________________________
dropout_11 (Dropout)         (None, 32)                0         
_________________________________________________________________
dense_11 (Dense)             (None, 10)                330       
=================================================================
Total params: 724,266
Trainable params: 724,074
Non-trainable params: 192
_________________________________________________________________
None
batch size: 20	learning rate: 0.001	max epochs: 350


items/class:  10  patience:  90
             precision recall  f1-score  support
0                0.973  0.914     0.943      980
…
6                0.982  0.981     0.982      958
7                 0.98  0.977     0.978     1028
8                0.949  0.982     0.965      974
9                 0.98  0.962     0.971     1009
accuracy             -      -     0.979    10000
macro avg        0.979  0.979     0.979    10000
weighted avg     0.979  0.979     0.979    10000
mcc:  0.977
last epoch:  69

Model: "sequential_3"
_________________________________________________________________
Layer (type)                 Output Shape              Param #   
=================================================================
conv2d_18 (Conv2D)           (None, 28, 28, 64)        3200      
_________________________________________________________________
batch_normalization_3 (Batch (None, 28, 28, 64)        256       
_________________________________________________________________
max_pooling2d_3 (MaxPooling2 (None, 7, 7, 64)          0         
_________________________________________________________________
conv2d_19 (Conv2D)           (None, 7, 7, 128)         204928    
_________________________________________________________________
conv2d_20 (Conv2D)           (None, 7, 7, 64)          204864    
_________________________________________________________________
conv2d_21 (Conv2D)           (None, 7, 7, 64)          102464    
_________________________________________________________________
conv2d_22 (Conv2D)           (None, 7, 7, 32)          100384    
_________________________________________________________________
conv2d_23 (Conv2D)           (None, 7, 7, 128)         102528    
_________________________________________________________________
global_average_pooling2d_3 ( (None, 128)               0         
_________________________________________________________________
dropout_3 (Dropout)          (None, 128)               0         
_________________________________________________________________
dense_3 (Dense)              (None, 10)                1290      
=================================================================
Total params: 719,914
Trainable params: 719,786
Non-trainable params: 128
_________________________________________________________________
None
batch size: [20, 48, 128, 128]	learning rate: 0.001	max epochs: 350


items/class:  10  patience:  40
             precision recall  f1-score  support
0                0.962  0.919     0.940      980
…
