Model: "sequential_3"
_________________________________________________________________
Layer (type)                 Output Shape              Param #   
=================================================================
conv2d_18 (Conv2D)           (None, 28, 28, 64)        3200      
_________________________________________________________________
batch_normalization_9 (Batch (None, 28, 28, 64)        256       
_________________________________________________________________
max_pooling2d_3 (MaxPooling2 (None, 7, 7, 64)          0         
_________________________________________________________________
conv2d_19 (Conv2D)           (None, 7, 7, 128)         204928    
_________________________________________________________________
batch_normalization_10 (Batc (None, 7, 7, 128)         512       
_________________________________________________________________
conv2d_20 (Conv2D)           (None, 7, 7, 64)          204864    
_________________________________________________________________
batch_normalization_11 (Batc (None, 7, 7, 64)          256       
_________________________________________________________________
conv2d_21 (Conv2D)           (None, 7, 7, 64)          102464    
_________________________________________________________________
conv2d_22 (Conv2D)           (None, 7, 7, 32)          100384    
_________________________________________________________________
conv2d_23 (Conv2D)           (None, 7, 7, 128)         102528    
_________________________________________________________________
global_average_pooling2d_3 ( (None, 128)               0         
_________________________________________________________________
dense_3 (Dense)              (None, 10)                1290      
=================================================================
Total params: 720,682
Trainable params: 720,170
Non-trainable params: 512
_________________________________________________________________
None
batch size: [20, 64, 128, 128]	learning rate: 0.001	max epochs: 350


items/class:  10  patience:  70
             precision recall  f1-score  support
0                0.949  0.939     0.944      980
…
9                0.943  0.948     0.946     1009
accuracy             -      -     0.968    10000
macro avg        0.968  0.968     0.968    10000
weighted avg     0.968  0.968     0.968    10000
mcc:  0.964
last epoch:  40
----------------------------------------------------------------------------------------------------------------------------------------
Model: "sequential_3"
_________________________________________________________________
Layer (type)                 Output Shape              Param #   
=================================================================
conv2d_18 (Conv2D)           (None, 28, 28, 64)        3200      
_________________________________________________________________
batch_normalization_9 (Batch (None, 28, 28, 64)        256       
_________________________________________________________________
max_pooling2d_3 (MaxPooling2 (None, 7, 7, 64)          0         
_________________________________________________________________
conv2d_19 (Conv2D)           (None, 7, 7, 128)         204928    
_________________________________________________________________
batch_normalization_10 (Batc (None, 7, 7, 128)         512       
_________________________________________________________________
conv2d_20 (Conv2D)           (None, 7, 7, 64)          204864    
_________________________________________________________________
batch_normalization_11 (Batc (None, 7, 7, 64)          256       
_________________________________________________________________
conv2d_21 (Conv2D)           (None, 7, 7, 64)          102464    
_________________________________________________________________
conv2d_22 (Conv2D)           (None, 7, 7, 32)          100384    
_________________________________________________________________
conv2d_23 (Conv2D)           (None, 7, 7, 128)         102528    
_________________________________________________________________
global_average_pooling2d_3 ( (None, 128)               0         
_________________________________________________________________
dropout_3 (Dropout)          (None, 128)               0         
_________________________________________________________________
dense_3 (Dense)              (None, 10)                1290      
=================================================================
Total params: 720,682
Trainable params: 720,170
Non-trainable params: 512
_________________________________________________________________
None
batch size: [20, 48, 128, 128]	learning rate: 0.001	max epochs: 350


items/class:  10  patience:  60
             precision recall  f1-score  support
0                    0      0     0.000      980
…
