Model: "sequential_3"
_________________________________________________________________
Layer (type)                 Output Shape              Param #   
=================================================================
conv2d_18 (Conv2D)           (None, 28, 28, 64)        3200      
_________________________________________________________________
batch_normalization_12 (Batc (None, 28, 28, 64)        256       
_________________________________________________________________
max_pooling2d_3 (MaxPooling2 (None, 7, 7, 64)          0         
_________________________________________________________________
conv2d_19 (Conv2D)           (None, 7, 7, 128)         204928    
_________________________________________________________________
batch_normalization_13 (Batc (None, 7, 7, 128)         512       
_________________________________________________________________
conv2d_20 (Conv2D)           (None, 7, 7, 64)          204864    
_________________________________________________________________
batch_normalization_14 (Batc (None, 7, 7, 64)          256       
_________________________________________________________________
conv2d_21 (Conv2D)           (None, 7, 7, 64)          102464    
_________________________________________________________________
batch_normalization_15 (Batc (None, 7, 7, 64)          256       
_________________________________________________________________
conv2d_22 (Conv2D)           (None, 7, 7, 32)          100384    
_________________________________________________________________
conv2d_23 (Conv2D)           (None, 7, 7, 128)         102528    
_________________________________________________________________
flatten_3 (Flatten)          (None, 6272)              0         
_________________________________________________________________
dropout_6 (Dropout)          (None, 6272)              0         
_________________________________________________________________
dense_9 (Dense)              (None, 32)                200736    
_________________________________________________________________
dropout_7 (Dropout)          (None, 32)                0         
_________________________________________________________________
dense_10 (Dense)             (None, 32)                1056      
_________________________________________________________________
dense_11 (Dense)             (None, 10)                330       
=================================================================
Total params: 921,770
Trainable params: 921,130
Non-trainable params: 640
_________________________________________________________________
None
batch size: 20	learning rate: 0.001	max epochs: 350


items/class:  10  patience:  70
             precision recall  f1-score  support
0                0.885  0.978     0.929      980
…
6                0.986  0.958     0.972      958
7                0.938  0.964     0.951     1028
8                0.858  0.945     0.899      974
9                0.936  0.969     0.952     1009
accuracy             -      -     0.953    10000
macro avg        0.954  0.952     0.952    10000
weighted avg     0.954  0.953     0.953    10000
mcc:  0.947
last epoch:  29

Model: "sequential_3"
_________________________________________________________________
Layer (type)                 Output Shape              Param #   
=================================================================
conv2d_18 (Conv2D)           (None, 28, 28, 64)        3200      
_________________________________________________________________
batch_normalization_9 (Batch (None, 28, 28, 64)        256       
_________________________________________________________________
max_pooling2d_3 (MaxPooling2 (None, 7, 7, 64)          0         
_________________________________________________________________
conv2d_19 (Conv2D)           (None, 7, 7, 128)         204928    
_________________________________________________________________
batch_normalization_10 (Batc (None, 7, 7, 128)         512       
_________________________________________________________________
conv2d_20 (Conv2D)           (None, 7, 7, 64)          204864    
_________________________________________________________________
batch_normalization_11 (Batc (None, 7, 7, 64)          256       
_________________________________________________________________
conv2d_21 (Conv2D)           (None, 7, 7, 64)          102464    
_________________________________________________________________
conv2d_22 (Conv2D)           (None, 7, 7, 32)          100384    
_________________________________________________________________
conv2d_23 (Conv2D)           (None, 7, 7, 128)         102528    
_________________________________________________________________
flatten_3 (Flatten)          (None, 6272)              0         
_________________________________________________________________
dropout_6 (Dropout)          (None, 6272)              0         
_________________________________________________________________
dense_9 (Dense)              (None, 32)                200736    
_________________________________________________________________
dropout_7 (Dropout)          (None, 32)                0         
_________________________________________________________________
dense_10 (Dense)             (None, 32)                1056      
_________________________________________________________________
dense_11 (Dense)             (None, 10)                330       
=================================================================
Total params: 921,514
Trainable params: 921,002
Non-trainable params: 512
_________________________________________________________________
None
batch size: 20	learning rate: 0.001	max epochs: 350


items/class:  10  patience:  70
             precision recall  f1-score  support
0                0.859  0.972     0.912      980
…
6                0.979  0.914     0.945      958
7                0.824  0.957     0.886     1028
8                0.845  0.825     0.835      974
9                0.945  0.526     0.676     1009
accuracy             -      -     0.834    10000
macro avg        0.881  0.827     0.823    10000
weighted avg     0.882  0.834     0.829    10000
mcc:  0.824
last epoch:  9

Model: "sequential_3"
_________________________________________________________________
Layer (type)                 Output Shape              Param #   
=================================================================
conv2d_18 (Conv2D)           (None, 28, 28, 64)        3200      
_________________________________________________________________
batch_normalization_18 (Batc (None, 28, 28, 64)        256       
_________________________________________________________________
max_pooling2d_3 (MaxPooling2 (None, 7, 7, 64)          0         
_________________________________________________________________
conv2d_19 (Conv2D)           (None, 7, 7, 128)         204928    
_________________________________________________________________
batch_normalization_19 (Batc (None, 7, 7, 128)         512       
_________________________________________________________________
conv2d_20 (Conv2D)           (None, 7, 7, 64)          204864    
_________________________________________________________________
batch_normalization_20 (Batc (None, 7, 7, 64)          256       
_________________________________________________________________
conv2d_21 (Conv2D)           (None, 7, 7, 64)          102464    
_________________________________________________________________
batch_normalization_21 (Batc (None, 7, 7, 64)          256       
_________________________________________________________________
conv2d_22 (Conv2D)           (None, 7, 7, 32)          100384    
_________________________________________________________________
conv2d_23 (Conv2D)           (None, 7, 7, 128)         102528    
_________________________________________________________________
flatten_3 (Flatten)          (None, 6272)              0         
_________________________________________________________________
dropout_6 (Dropout)          (None, 6272)              0         
_________________________________________________________________
batch_normalization_22 (Batc (None, 6272)              25088     
_________________________________________________________________
dense_9 (Dense)              (None, 32)                200736    
_________________________________________________________________
dropout_7 (Dropout)          (None, 32)                0         
_________________________________________________________________
batch_normalization_23 (Batc (None, 32)                128       
_________________________________________________________________
dense_10 (Dense)             (None, 32)                1056      
_________________________________________________________________
dense_11 (Dense)             (None, 10)                330       
=================================================================
Total params: 946,986
Trainable params: 933,738
Non-trainable params: 13,248
_________________________________________________________________
None
batch size: 20	learning rate: 0.001	max epochs: 350


items/class:  10  patience:  70
             precision recall  f1-score  support
0                    0      0     0.000      980
…
6                0.927  0.772     0.843      958
7                0.808  0.803     0.805     1028
8                0.814  0.616     0.701      974
9                0.924  0.493     0.643     1009
accuracy             -      -     0.815    10000
macro avg        0.835  0.813     0.810    10000
weighted avg     0.834  0.815     0.810    10000
mcc:  0.797
last epoch:  12

Model: "sequential_3"
_________________________________________________________________
Layer (type)                 Output Shape              Param #   
=================================================================
conv2d_18 (Conv2D)           (None, 28, 28, 64)        3200      
_________________________________________________________________
batch_normalization_15 (Batc (None, 28, 28, 64)        256       
_________________________________________________________________
max_pooling2d_3 (MaxPooling2 (None, 7, 7, 64)          0         
_________________________________________________________________
conv2d_19 (Conv2D)           (None, 7, 7, 128)         204928    
_________________________________________________________________
batch_normalization_16 (Batc (None, 7, 7, 128)         512       
_________________________________________________________________
conv2d_20 (Conv2D)           (None, 7, 7, 64)          204864    
_________________________________________________________________
batch_normalization_17 (Batc (None, 7, 7, 64)          256       
_________________________________________________________________
conv2d_21 (Conv2D)           (None, 7, 7, 64)          102464    
_________________________________________________________________
batch_normalization_18 (Batc (None, 7, 7, 64)          256       
_________________________________________________________________
conv2d_22 (Conv2D)           (None, 7, 7, 32)          100384    
_________________________________________________________________
conv2d_23 (Conv2D)           (None, 7, 7, 128)         102528    
_________________________________________________________________
flatten_3 (Flatten)          (None, 6272)              0         
_________________________________________________________________
dropout_6 (Dropout)          (None, 6272)              0         
_________________________________________________________________
batch_normalization_19 (Batc (None, 6272)              25088     
_________________________________________________________________
dense_9 (Dense)              (None, 32)                200736    
_________________________________________________________________
dropout_7 (Dropout)          (None, 32)                0         
_________________________________________________________________
dense_10 (Dense)             (None, 32)                1056      
_________________________________________________________________
dense_11 (Dense)             (None, 10)                330       
=================================================================
Total params: 946,858
Trainable params: 933,674
Non-trainable params: 13,184
_________________________________________________________________
None
batch size: 20	learning rate: 0.001	max epochs: 350


items/class:  10  patience:  70
             precision recall  f1-score  support
0                    0      0     0.000      980
…
6                0.986  0.958     0.972      958
7                0.938  0.964     0.951     1028
8                0.858  0.945     0.899      974
9                0.936  0.969     0.952     1009
accuracy             -      -     0.953    10000
macro avg        0.954  0.952     0.952    10000
weighted avg     0.954  0.953     0.953    10000
mcc:  0.947
last epoch:  29

Model: "sequential_3"
_________________________________________________________________
Layer (type)                 Output Shape              Param #   
=================================================================
conv2d_18 (Conv2D)           (None, 28, 28, 64)        3200      
_________________________________________________________________
batch_normalization_12 (Batc (None, 28, 28, 64)        256       
_________________________________________________________________
max_pooling2d_3 (MaxPooling2 (None, 7, 7, 64)          0         
_________________________________________________________________
conv2d_19 (Conv2D)           (None, 7, 7, 128)         204928    
_________________________________________________________________
batch_normalization_13 (Batc (None, 7, 7, 128)         512       
_________________________________________________________________
conv2d_20 (Conv2D)           (None, 7, 7, 64)          204864    
_________________________________________________________________
batch_normalization_14 (Batc (None, 7, 7, 64)          256       
_________________________________________________________________
conv2d_21 (Conv2D)           (None, 7, 7, 64)          102464    
_________________________________________________________________
batch_normalization_15 (Batc (None, 7, 7, 64)          256       
_________________________________________________________________
conv2d_22 (Conv2D)           (None, 7, 7, 32)          100384    
_________________________________________________________________
conv2d_23 (Conv2D)           (None, 7, 7, 128)         102528    
_________________________________________________________________
flatten_3 (Flatten)          (None, 6272)              0         
_________________________________________________________________
dropout_9 (Dropout)          (None, 6272)              0         
_________________________________________________________________
dense_9 (Dense)              (None, 32)                200736    
_________________________________________________________________
dropout_10 (Dropout)         (None, 32)                0         
_________________________________________________________________
dense_10 (Dense)             (None, 32)                1056      
_________________________________________________________________
dropout_11 (Dropout)         (None, 32)                0         
_________________________________________________________________
dense_11 (Dense)             (None, 10)                330       
=================================================================
Total params: 921,770
Trainable params: 921,130
Non-trainable params: 640
_________________________________________________________________
None
batch size: 20	learning rate: 0.001	max epochs: 350


items/class:  10  patience:  70
             precision recall  f1-score  support
0                0.904  0.969     0.935      980
…
