Model: "sequential_3"
_________________________________________________________________
Layer (type)                 Output Shape              Param #   
=================================================================
up_sampling2d_3 (UpSampling2 (None, 224, 224, 3)       0         
_________________________________________________________________
efficientnetb0 (Functional)  (None, 7, 7, 1280)        4049571   
_________________________________________________________________
global_average_pooling2d_3 ( (None, 1280)              0         
_________________________________________________________________
dropout_18 (Dropout)         (None, 1280)              0         
_________________________________________________________________
dense_21 (Dense)             (None, 512)               655872    
_________________________________________________________________
dropout_19 (Dropout)         (None, 512)               0         
_________________________________________________________________
dense_22 (Dense)             (None, 512)               262656    
_________________________________________________________________
dropout_20 (Dropout)         (None, 512)               0         
_________________________________________________________________
dense_23 (Dense)             (None, 256)               131328    
_________________________________________________________________
dropout_21 (Dropout)         (None, 256)               0         
_________________________________________________________________
dense_24 (Dense)             (None, 256)               65792     
_________________________________________________________________
dropout_22 (Dropout)         (None, 256)               0         
_________________________________________________________________
dense_25 (Dense)             (None, 256)               65792     
_________________________________________________________________
dropout_23 (Dropout)         (None, 256)               0         
_________________________________________________________________
dense_26 (Dense)             (None, 256)               65792     
_________________________________________________________________
dense_27 (Dense)             (None, 10)                2570      
=================================================================
Total params: 5,299,373
Trainable params: 1,249,802
Non-trainable params: 4,049,571
_________________________________________________________________
None
batch size: [20, 64, 128, 128]	learning rate: 0.001	max epochs: 80


items/class:  10  patience:  50
             precision recall  f1-score  support
0                0.819   0.93     0.871      980
…
6                0.982  0.807     0.886      958
7                0.751  0.924     0.829     1028
8                0.876  0.908     0.892      974
9                0.914  0.823     0.866     1009
accuracy             -      -     0.842    10000
macro avg        0.867  0.837     0.837    10000
weighted avg     0.867  0.842     0.840    10000
mcc:  0.828
last epoch:  200

Model: "sequential_3"
_________________________________________________________________
Layer (type)                 Output Shape              Param #   
=================================================================
up_sampling2d_3 (UpSampling2 (None, 224, 224, 3)       0         
_________________________________________________________________
efficientnetb0 (Functional)  (None, 7, 7, 1280)        4049571   
_________________________________________________________________
global_average_pooling2d_3 ( (None, 1280)              0         
_________________________________________________________________
dense_21 (Dense)             (None, 512)               655872    
_________________________________________________________________
dropout_15 (Dropout)         (None, 512)               0         
_________________________________________________________________
dense_22 (Dense)             (None, 512)               262656    
_________________________________________________________________
dropout_16 (Dropout)         (None, 512)               0         
_________________________________________________________________
dense_23 (Dense)             (None, 256)               131328    
_________________________________________________________________
dropout_17 (Dropout)         (None, 256)               0         
_________________________________________________________________
dense_24 (Dense)             (None, 256)               65792     
_________________________________________________________________
dropout_18 (Dropout)         (None, 256)               0         
_________________________________________________________________
dense_25 (Dense)             (None, 256)               65792     
_________________________________________________________________
dropout_19 (Dropout)         (None, 256)               0         
_________________________________________________________________
dense_26 (Dense)             (None, 256)               65792     
_________________________________________________________________
dense_27 (Dense)             (None, 10)                2570      
=================================================================
Total params: 5,299,373
Trainable params: 1,249,802
Non-trainable params: 4,049,571
_________________________________________________________________
None
batch size: [20, 32, 32, 32]	learning rate: 0.001	max epochs: 350


items/class:  10  patience:  60
             precision recall  f1-score  support
0                0.904  0.951     0.927      980
…
6                0.975   0.65     0.780      958
7                0.649  0.928     0.764     1028
8                0.907  0.871     0.888      974
9                 0.89  0.743     0.810     1009
accuracy             -      -     0.800    10000
macro avg        0.836  0.794     0.797    10000
weighted avg     0.838    0.8     0.801    10000
mcc:  0.783
last epoch:  122

Model: "sequential_3"
_________________________________________________________________
Layer (type)                 Output Shape              Param #   
=================================================================
up_sampling2d_3 (UpSampling2 (None, 224, 224, 3)       0         
_________________________________________________________________
efficientnetb0 (Functional)  (None, 7, 7, 1280)        4049571   
_________________________________________________________________
dropout_18 (Dropout)         (None, 7, 7, 1280)        0         
_________________________________________________________________
global_average_pooling2d_3 ( (None, 1280)              0         
_________________________________________________________________
dense_21 (Dense)             (None, 512)               655872    
_________________________________________________________________
dropout_19 (Dropout)         (None, 512)               0         
_________________________________________________________________
batch_normalization_9 (Batch (None, 512)               2048      
_________________________________________________________________
dense_22 (Dense)             (None, 512)               262656    
_________________________________________________________________
dropout_20 (Dropout)         (None, 512)               0         
_________________________________________________________________
batch_normalization_10 (Batc (None, 512)               2048      
_________________________________________________________________
dense_23 (Dense)             (None, 256)               131328    
_________________________________________________________________
dropout_21 (Dropout)         (None, 256)               0         
_________________________________________________________________
batch_normalization_11 (Batc (None, 256)               1024      
_________________________________________________________________
dense_24 (Dense)             (None, 256)               65792     
_________________________________________________________________
dropout_22 (Dropout)         (None, 256)               0         
_________________________________________________________________
dense_25 (Dense)             (None, 256)               65792     
_________________________________________________________________
dropout_23 (Dropout)         (None, 256)               0         
_________________________________________________________________
dense_26 (Dense)             (None, 256)               65792     
_________________________________________________________________
dense_27 (Dense)             (None, 10)                2570      
=================================================================
Total params: 5,304,493
Trainable params: 1,252,362
Non-trainable params: 4,052,131
_________________________________________________________________
None
batch size: [20, 32, 32, 32]	learning rate: 0.001	max epochs: 350


items/class:  10  patience:  60
             precision recall  f1-score  support
0                0.508  0.984     0.670      980
…
6                0.987  0.245     0.393      958
7                0.801  0.801     0.801     1028
8                0.686  0.923     0.787      974
9                0.921  0.533     0.675     1009
accuracy             -      -     0.679    10000
macro avg        0.732  0.669     0.640    10000
weighted avg     0.742  0.679     0.651    10000
mcc:  0.663
last epoch:  52

Model: "sequential_3"
_________________________________________________________________
Layer (type)                 Output Shape              Param #   
=================================================================
up_sampling2d_3 (UpSampling2 (None, 224, 224, 3)       0         
_________________________________________________________________
efficientnetb0 (Functional)  (None, 7, 7, 1280)        4049571   
_________________________________________________________________
dropout_27 (Dropout)         (None, 7, 7, 1280)        0         
_________________________________________________________________
global_average_pooling2d_3 ( (None, 1280)              0         
_________________________________________________________________
dropout_28 (Dropout)         (None, 1280)              0         
_________________________________________________________________
dense_27 (Dense)             (None, 512)               655872    
_________________________________________________________________
dropout_29 (Dropout)         (None, 512)               0         
_________________________________________________________________
batch_normalization_12 (Batc (None, 512)               2048      
_________________________________________________________________
dense_28 (Dense)             (None, 512)               262656    
_________________________________________________________________
dropout_30 (Dropout)         (None, 512)               0         
_________________________________________________________________
dense_29 (Dense)             (None, 512)               262656    
_________________________________________________________________
dropout_31 (Dropout)         (None, 512)               0         
_________________________________________________________________
batch_normalization_13 (Batc (None, 512)               2048      
_________________________________________________________________
dense_30 (Dense)             (None, 512)               262656    
_________________________________________________________________
dropout_32 (Dropout)         (None, 512)               0         
_________________________________________________________________
batch_normalization_14 (Batc (None, 512)               2048      
_________________________________________________________________
dense_31 (Dense)             (None, 256)               131328    
_________________________________________________________________
dropout_33 (Dropout)         (None, 256)               0         
_________________________________________________________________
batch_normalization_15 (Batc (None, 256)               1024      
_________________________________________________________________
dense_32 (Dense)             (None, 256)               65792     
_________________________________________________________________
dropout_34 (Dropout)         (None, 256)               0         
_________________________________________________________________
dense_33 (Dense)             (None, 256)               65792     
_________________________________________________________________
dropout_35 (Dropout)         (None, 256)               0         
_________________________________________________________________
dense_34 (Dense)             (None, 256)               65792     
_________________________________________________________________
dense_35 (Dense)             (None, 10)                2570      
=================================================================
Total params: 5,831,853
Trainable params: 1,778,698
Non-trainable params: 4,053,155
_________________________________________________________________
None
batch size: [20, 32, 32, 32]	learning rate: 0.001	max epochs: 350


items/class:  10  patience:  70
             precision recall  f1-score  support
0                0.852  0.929     0.889      980
…
6                0.982   0.72     0.831      958
7                0.875   0.89     0.882     1028
8                0.888  0.939     0.913      974
9                0.796  0.936     0.860     1009
accuracy             -      -     0.857    10000
macro avg        0.873  0.851     0.849    10000
weighted avg     0.874  0.857     0.853    10000
mcc:  0.844
last epoch:  171

Model: "sequential_3"
_________________________________________________________________
Layer (type)                 Output Shape              Param #   
=================================================================
up_sampling2d_3 (UpSampling2 (None, 224, 224, 3)       0         
_________________________________________________________________
efficientnetb0 (Functional)  (None, 7, 7, 1280)        4049571   
_________________________________________________________________
global_average_pooling2d_3 ( (None, 1280)              0         
_________________________________________________________________
dropout_27 (Dropout)         (None, 1280)              0         
_________________________________________________________________
dense_27 (Dense)             (None, 512)               655872    
_________________________________________________________________
dropout_28 (Dropout)         (None, 512)               0         
_________________________________________________________________
batch_normalization_12 (Batc (None, 512)               2048      
_________________________________________________________________
dense_28 (Dense)             (None, 256)               131328    
_________________________________________________________________
dropout_29 (Dropout)         (None, 256)               0         
_________________________________________________________________
dense_29 (Dense)             (None, 256)               65792     
_________________________________________________________________
dropout_30 (Dropout)         (None, 256)               0         
_________________________________________________________________
batch_normalization_13 (Batc (None, 256)               1024      
_________________________________________________________________
dense_30 (Dense)             (None, 256)               65792     
_________________________________________________________________
dropout_31 (Dropout)         (None, 256)               0         
_________________________________________________________________
batch_normalization_14 (Batc (None, 256)               1024      
_________________________________________________________________
dense_31 (Dense)             (None, 256)               65792     
_________________________________________________________________
dropout_32 (Dropout)         (None, 256)               0         
_________________________________________________________________
batch_normalization_15 (Batc (None, 256)               1024      
_________________________________________________________________
dense_32 (Dense)             (None, 256)               65792     
_________________________________________________________________
dropout_33 (Dropout)         (None, 256)               0         
_________________________________________________________________
dense_33 (Dense)             (None, 256)               65792     
_________________________________________________________________
dropout_34 (Dropout)         (None, 256)               0         
_________________________________________________________________
dense_34 (Dense)             (None, 256)               65792     
_________________________________________________________________
dropout_35 (Dropout)         (None, 256)               0         
_________________________________________________________________
dense_35 (Dense)             (None, 10)                2570      
=================================================================
Total params: 5,239,213
Trainable params: 1,187,082
Non-trainable params: 4,052,131
_________________________________________________________________
None
batch size: [20, 32, 32, 32]	learning rate: 0.001	max epochs: 350


items/class:  10  patience:  70
             precision recall  f1-score  support
0                    0      0     0.000      980
…
6                0.974  0.699     0.814      958
7                0.776  0.895     0.831     1028
8                0.828  0.931     0.876      974
9                0.805  0.887     0.844     1009
accuracy             -      -     0.824    10000
macro avg        0.823  0.818     0.816    10000
weighted avg     0.826  0.824     0.821    10000
mcc:  0.805
last epoch:  312

Model: "sequential"
_________________________________________________________________
Layer (type)                 Output Shape              Param #   
=================================================================
up_sampling2d (UpSampling2D) (None, 224, 224, 3)       0         
_________________________________________________________________
efficientnetb0 (Functional)  (None, 7, 7, 1280)        4049571   
_________________________________________________________________
global_average_pooling2d (Gl (None, 1280)              0         
_________________________________________________________________
batch_normalization (BatchNo (None, 1280)              5120      
_________________________________________________________________
dropout (Dropout)            (None, 1280)              0         
_________________________________________________________________
dense (Dense)                (None, 256)               327936    
_________________________________________________________________
batch_normalization_1 (Batch (None, 256)               1024      
_________________________________________________________________
dropout_1 (Dropout)          (None, 256)               0         
_________________________________________________________________
dense_1 (Dense)              (None, 256)               65792     
_________________________________________________________________
batch_normalization_2 (Batch (None, 256)               1024      
_________________________________________________________________
dropout_2 (Dropout)          (None, 256)               0         
_________________________________________________________________
dense_2 (Dense)              (None, 256)               65792     
_________________________________________________________________
batch_normalization_3 (Batch (None, 256)               1024      
_________________________________________________________________
dropout_3 (Dropout)          (None, 256)               0         
_________________________________________________________________
dense_3 (Dense)              (None, 256)               65792     
_________________________________________________________________
batch_normalization_4 (Batch (None, 256)               1024      
_________________________________________________________________
dropout_4 (Dropout)          (None, 256)               0         
_________________________________________________________________
dense_4 (Dense)              (None, 256)               65792     
_________________________________________________________________
batch_normalization_5 (Batch (None, 256)               1024      
_________________________________________________________________
dropout_5 (Dropout)          (None, 256)               0         
_________________________________________________________________
dense_5 (Dense)              (None, 256)               65792     
_________________________________________________________________
batch_normalization_6 (Batch (None, 256)               1024      
_________________________________________________________________
dropout_6 (Dropout)          (None, 256)               0         
_________________________________________________________________
dense_6 (Dense)              (None, 256)               65792     
_________________________________________________________________
batch_normalization_7 (Batch (None, 256)               1024      
_________________________________________________________________
dropout_7 (Dropout)          (None, 256)               0         
_________________________________________________________________
dense_7 (Dense)              (None, 256)               65792     
_________________________________________________________________
dropout_8 (Dropout)          (None, 256)               0         
_________________________________________________________________
dense_8 (Dense)              (None, 10)                2570      
=================================================================
Total params: 4,852,909
Trainable params: 797,194
Non-trainable params: 4,055,715
_________________________________________________________________
None
batch size: [20]	learning rate: 0.0005	max epochs: 350


items/class:  10  patience:  70
             precision recall  f1-score  support
0                    0      0     0.000      980
…
6                    0      0     0.000      958
7                0.077  0.001     0.002     1028
8                    0      0     0.000      974
9                0.109  0.021     0.035     1009
accuracy             -      -     0.102    10000
macro avg        0.057  0.099     0.023    10000
weighted avg     0.055  0.102     0.023    10000
mcc:  -0.003
last epoch:  77

Model: "sequential"
_________________________________________________________________
Layer (type)                 Output Shape              Param #   
=================================================================
up_sampling2d (UpSampling2D) (None, 224, 224, 3)       0         
_________________________________________________________________
efficientnetb0 (Functional)  (None, 7, 7, 1280)        4049571   
_________________________________________________________________
global_average_pooling2d (Gl (None, 1280)              0         
_________________________________________________________________
dropout (Dropout)            (None, 1280)              0         
_________________________________________________________________
dense (Dense)                (None, 256)               327936    
_________________________________________________________________
batch_normalization (BatchNo (None, 256)               1024      
_________________________________________________________________
dropout_1 (Dropout)          (None, 256)               0         
_________________________________________________________________
dense_1 (Dense)              (None, 256)               65792     
_________________________________________________________________
dropout_2 (Dropout)          (None, 256)               0         
_________________________________________________________________
dense_2 (Dense)              (None, 256)               65792     
_________________________________________________________________
batch_normalization_1 (Batch (None, 256)               1024      
_________________________________________________________________
dropout_3 (Dropout)          (None, 256)               0         
_________________________________________________________________
dense_3 (Dense)              (None, 256)               65792     
_________________________________________________________________
dropout_4 (Dropout)          (None, 256)               0         
_________________________________________________________________
dense_4 (Dense)              (None, 256)               65792     
_________________________________________________________________
batch_normalization_2 (Batch (None, 256)               1024      
_________________________________________________________________
dropout_5 (Dropout)          (None, 256)               0         
_________________________________________________________________
dense_5 (Dense)              (None, 256)               65792     
_________________________________________________________________
dropout_6 (Dropout)          (None, 256)               0         
_________________________________________________________________
dense_6 (Dense)              (None, 256)               65792     
_________________________________________________________________
batch_normalization_3 (Batch (None, 256)               1024      
_________________________________________________________________
dropout_7 (Dropout)          (None, 256)               0         
_________________________________________________________________
dense_7 (Dense)              (None, 256)               65792     
_________________________________________________________________
dropout_8 (Dropout)          (None, 256)               0         
_________________________________________________________________
dense_8 (Dense)              (None, 10)                2570      
=================================================================
Total params: 4,844,717
Trainable params: 793,098
Non-trainable params: 4,051,619
_________________________________________________________________
None
batch size: [20]	learning rate: 0.0005	max epochs: 250


items/class:  10  patience:  70
             precision recall  f1-score  support
0                 0.95  0.696     0.803      980
…
6                0.374  0.079     0.131      958
7                0.317  0.818     0.457     1028
8                0.974  0.191     0.319      974
9                0.076  0.011     0.019     1009
accuracy             -      -     0.353    10000
macro avg        0.423  0.349     0.286    10000
weighted avg     0.429  0.353     0.294    10000
mcc:  0.33
last epoch:  250

Model: "sequential"
_________________________________________________________________
Layer (type)                 Output Shape              Param #   
=================================================================
up_sampling2d (UpSampling2D) (None, 224, 224, 3)       0         
_________________________________________________________________
efficientnetb0 (Functional)  (None, 7, 7, 1280)        4049571   
_________________________________________________________________
global_average_pooling2d (Gl (None, 1280)              0         
_________________________________________________________________
dense (Dense)                (None, 512)               655872    
_________________________________________________________________
batch_normalization (BatchNo (None, 512)               2048      
_________________________________________________________________
dropout (Dropout)            (None, 512)               0         
_________________________________________________________________
dense_1 (Dense)              (None, 256)               131328    
_________________________________________________________________
batch_normalization_1 (Batch (None, 256)               1024      
_________________________________________________________________
dropout_1 (Dropout)          (None, 256)               0         
_________________________________________________________________
dense_2 (Dense)              (None, 256)               65792     
_________________________________________________________________
dense_3 (Dense)              (None, 10)                2570      
=================================================================
Total params: 4,908,205
Trainable params: 857,098
Non-trainable params: 4,051,107
_________________________________________________________________
None
batch size: [20]	learning rate: 0.0005	max epochs: 250


items/class:  10  patience:  70
             precision recall  f1-score  support
0                0.811  0.959     0.879      980
…
6                0.944  0.478     0.635      958
7                  0.5  0.893     0.641     1028
8                0.822  0.693     0.752      974
9                0.626  0.343     0.443     1009
accuracy             -      -     0.647    10000
macro avg        0.714  0.638     0.614    10000
weighted avg     0.714  0.647     0.622    10000
mcc:  0.618
last epoch:  207

Model: "sequential"
_________________________________________________________________
Layer (type)                 Output Shape              Param #   
=================================================================
up_sampling2d (UpSampling2D) (None, 224, 224, 3)       0         
_________________________________________________________________
efficientnetb0 (Functional)  (None, 7, 7, 1280)        4049571   
_________________________________________________________________
global_average_pooling2d (Gl (None, 1280)              0         
_________________________________________________________________
dropout (Dropout)            (None, 1280)              0         
_________________________________________________________________
dense (Dense)                (None, 512)               655872    
_________________________________________________________________
batch_normalization (BatchNo (None, 512)               2048      
_________________________________________________________________
dropout_1 (Dropout)          (None, 512)               0         
_________________________________________________________________
dense_1 (Dense)              (None, 256)               131328    
_________________________________________________________________
dropout_2 (Dropout)          (None, 256)               0         
_________________________________________________________________
dense_2 (Dense)              (None, 256)               65792     
_________________________________________________________________
dropout_3 (Dropout)          (None, 256)               0         
_________________________________________________________________
dense_3 (Dense)              (None, 10)                2570      
=================================================================
Total params: 4,907,181
Trainable params: 856,586
Non-trainable params: 4,050,595
_________________________________________________________________
None
batch size: [20]	learning rate: 0.0005	max epochs: 350


items/class:  10  patience:  50
             precision recall  f1-score  support
0                0.802  0.894     0.846      980
…
6                0.942  0.661     0.777      958
7                0.511  0.955     0.666     1028
8                0.935  0.753     0.834      974
9                  0.8  0.765     0.782     1009
accuracy             -      -     0.737    10000
macro avg        0.777  0.733     0.729    10000
weighted avg      0.78  0.737     0.731    10000
mcc:  0.714
last epoch:  287

Model: "sequential_3"
_________________________________________________________________
Layer (type)                 Output Shape              Param #   
=================================================================
up_sampling2d_3 (UpSampling2 (None, 224, 224, 3)       0         
_________________________________________________________________
efficientnetb0 (Functional)  (None, 7, 7, 1280)        4049571   
_________________________________________________________________
global_average_pooling2d_3 ( (None, 1280)              0         
_________________________________________________________________
batch_normalization_3 (Batch (None, 1280)              5120      
_________________________________________________________________
dropout_3 (Dropout)          (None, 1280)              0         
_________________________________________________________________
dense_3 (Dense)              (None, 10)                12810     
=================================================================
Total params: 4,067,501
Trainable params: 796,810
Non-trainable params: 3,270,691
_________________________________________________________________
None
batch size: [20, 32, 32, 32]	learning rate: 0.0005	max epochs: 60


items/class:  10  patience:  10
             precision recall  f1-score  support
0                0.717  0.958     0.820      980
…
