Model: "sequential"
_________________________________________________________________
Layer (type)                 Output Shape              Param #   
=================================================================
conv2d (Conv2D)              (None, 28, 28, 64)        3200      
_________________________________________________________________
batch_normalization (BatchNo (None, 28, 28, 64)        256       
_________________________________________________________________
max_pooling2d (MaxPooling2D) (None, 7, 7, 64)          0         
_________________________________________________________________
conv2d_1 (Conv2D)            (None, 7, 7, 128)         204928    
_________________________________________________________________
dropout (Dropout)            (None, 7, 7, 128)         0         
_________________________________________________________________
conv2d_2 (Conv2D)            (None, 7, 7, 64)          204864    
_________________________________________________________________
dropout_1 (Dropout)          (None, 7, 7, 64)          0         
_________________________________________________________________
conv2d_3 (Conv2D)            (None, 7, 7, 64)          102464    
_________________________________________________________________
dropout_2 (Dropout)          (None, 7, 7, 64)          0         
_________________________________________________________________
conv2d_4 (Conv2D)            (None, 7, 7, 32)          100384    
_________________________________________________________________
dropout_3 (Dropout)          (None, 7, 7, 32)          0         
_________________________________________________________________
conv2d_5 (Conv2D)            (None, 7, 7, 128)         102528    
_________________________________________________________________
dropout_4 (Dropout)          (None, 7, 7, 128)         0         
_________________________________________________________________
conv2d_6 (Conv2D)            (None, 7, 7, 64)          204864    
_________________________________________________________________
global_average_pooling2d (Gl (None, 64)                0         
_________________________________________________________________
dense (Dense)                (None, 10)                650       
=================================================================
Total params: 924,138
Trainable params: 924,010
Non-trainable params: 128
_________________________________________________________________
None
batch size: [20]	learning rate: 0.001	max epochs: 350


items/class:  10  patience:  100
             precision recall  f1-score  support
0                0.855  0.931     0.891      980
…
