Model: "sequential_3"
_________________________________________________________________
Layer (type)                 Output Shape              Param #   
=================================================================
up_sampling2d_3 (UpSampling2 (None, 224, 224, 3)       0         
_________________________________________________________________
efficientnetb0 (Functional)  (None, 7, 7, 1280)        4049571   
_________________________________________________________________
global_average_pooling2d_3 ( (None, 1280)              0         
_________________________________________________________________
dropout_18 (Dropout)         (None, 1280)              0         
_________________________________________________________________
dense_21 (Dense)             (None, 512)               655872    
_________________________________________________________________
dropout_19 (Dropout)         (None, 512)               0         
_________________________________________________________________
dense_22 (Dense)             (None, 512)               262656    
_________________________________________________________________
dropout_20 (Dropout)         (None, 512)               0         
_________________________________________________________________
dense_23 (Dense)             (None, 256)               131328    
_________________________________________________________________
dropout_21 (Dropout)         (None, 256)               0         
_________________________________________________________________
dense_24 (Dense)             (None, 256)               65792     
_________________________________________________________________
dropout_22 (Dropout)         (None, 256)               0         
_________________________________________________________________
dense_25 (Dense)             (None, 256)               65792     
_________________________________________________________________
dropout_23 (Dropout)         (None, 256)               0         
_________________________________________________________________
dense_26 (Dense)             (None, 256)               65792     
_________________________________________________________________
dense_27 (Dense)             (None, 10)                2570      
=================================================================
Total params: 5,299,373
Trainable params: 1,249,802
Non-trainable params: 4,049,571
_________________________________________________________________
None
batch size: [20, 64, 128, 128]	learning rate: 0.001	max epochs: 80


items/class:  10  patience:  50
             precision recall  f1-score  support
0                0.819   0.93     0.871      980
…
6                0.982  0.807     0.886      958
7                0.751  0.924     0.829     1028
8                0.876  0.908     0.892      974
9                0.914  0.823     0.866     1009
accuracy             -      -     0.842    10000
macro avg        0.867  0.837     0.837    10000
weighted avg     0.867  0.842     0.840    10000
mcc:  0.828
last epoch:  200

Model: "sequential_3"
_________________________________________________________________
Layer (type)                 Output Shape              Param #   
=================================================================
up_sampling2d_3 (UpSampling2 (None, 224, 224, 3)       0         
_________________________________________________________________
efficientnetb0 (Functional)  (None, 7, 7, 1280)        4049571   
_________________________________________________________________
global_average_pooling2d_3 ( (None, 1280)              0         
_________________________________________________________________
dense_21 (Dense)             (None, 512)               655872    
_________________________________________________________________
dropout_15 (Dropout)         (None, 512)               0         
_________________________________________________________________
dense_22 (Dense)             (None, 512)               262656    
_________________________________________________________________
dropout_16 (Dropout)         (None, 512)               0         
_________________________________________________________________
dense_23 (Dense)             (None, 256)               131328    
_________________________________________________________________
dropout_17 (Dropout)         (None, 256)               0         
_________________________________________________________________
dense_24 (Dense)             (None, 256)               65792     
_________________________________________________________________
dropout_18 (Dropout)         (None, 256)               0         
_________________________________________________________________
dense_25 (Dense)             (None, 256)               65792     
_________________________________________________________________
dropout_19 (Dropout)         (None, 256)               0         
_________________________________________________________________
dense_26 (Dense)             (None, 256)               65792     
_________________________________________________________________
dense_27 (Dense)             (None, 10)                2570      
=================================================================
Total params: 5,299,373
Trainable params: 1,249,802
Non-trainable params: 4,049,571
_________________________________________________________________
None
batch size: [20, 32, 32, 32]	learning rate: 0.001	max epochs: 350


items/class:  10  patience:  60
             precision recall  f1-score  support
0                0.904  0.951     0.927      980
…
