Model: "sequential"
_________________________________________________________________
Layer (type)                 Output Shape              Param #   
=================================================================
conv2d (Conv2D)              (None, 32, 32, 128)       6400      
_________________________________________________________________
batch_normalization (BatchNo (None, 32, 32, 128)       512       
_________________________________________________________________
max_pooling2d (MaxPooling2D) (None, 8, 8, 128)         0         
_________________________________________________________________
conv2d_1 (Conv2D)            (None, 8, 8, 64)          204864    
_________________________________________________________________
batch_normalization_1 (Batch (None, 8, 8, 64)          256       
_________________________________________________________________
conv2d_2 (Conv2D)            (None, 8, 8, 32)          18464     
_________________________________________________________________
max_pooling2d_1 (MaxPooling2 (None, 2, 2, 32)          0         
_________________________________________________________________
flatten (Flatten)            (None, 128)               0         
_________________________________________________________________
dense (Dense)                (None, 32)                4128      
_________________________________________________________________
dense_1 (Dense)              (None, 32)                1056      
_________________________________________________________________
dense_2 (Dense)              (None, 102)               3366      
=================================================================
Total params: 239,046
Trainable params: 238,662
Non-trainable params: 384
_________________________________________________________________
None
batch size: [20]	learning rate: 0.0001	max epochs: 80


items/class:  10  patience:  55
             precision recall  f1-score  support
0                0.005   0.05     0.009       20
…
4                    0      0     0.000       45
...                ...    ...       ...      ...
100              0.082  0.105     0.092       38
101              0.023  0.071     0.034       28
accuracy             -      -     0.053     6149
macro avg        0.055  0.057     0.051     6149
weighted avg     0.064  0.053     0.053     6149

[105 rows x 4 columns]
mcc:  0.043
last epoch:  174

Model: "sequential"
_________________________________________________________________
Layer (type)                 Output Shape              Param #   
=================================================================
conv2d (Conv2D)              (None, 32, 32, 128)       6400      
_________________________________________________________________
batch_normalization (BatchNo (None, 32, 32, 128)       512       
_________________________________________________________________
max_pooling2d (MaxPooling2D) (None, 8, 8, 128)         0         
_________________________________________________________________
conv2d_1 (Conv2D)            (None, 8, 8, 64)          204864    
_________________________________________________________________
conv2d_2 (Conv2D)            (None, 8, 8, 32)          18464     
_________________________________________________________________
max_pooling2d_1 (MaxPooling2 (None, 2, 2, 32)          0         
_________________________________________________________________
flatten (Flatten)            (None, 128)               0         
_________________________________________________________________
dense (Dense)                (None, 32)                4128      
_________________________________________________________________
dense_1 (Dense)              (None, 32)                1056      
_________________________________________________________________
dense_2 (Dense)              (None, 102)               3366      
=================================================================
Total params: 238,790
Trainable params: 238,534
Non-trainable params: 256
_________________________________________________________________
None
batch size: [32]	learning rate: 0.0001	max epochs: 300


items/class:  10  patience:  155
             precision recall  f1-score  support
0                    0      0     0.000       20
…
