Model: "sequential"
_________________________________________________________________
Layer (type)                 Output Shape              Param #   
=================================================================
conv2d (Conv2D)              (None, 32, 32, 128)       6400      
_________________________________________________________________
max_pooling2d (MaxPooling2D) (None, 8, 8, 128)         0         
_________________________________________________________________
conv2d_1 (Conv2D)            (None, 8, 8, 64)          204864    
_________________________________________________________________
conv2d_2 (Conv2D)            (None, 8, 8, 32)          18464     
_________________________________________________________________
max_pooling2d_1 (MaxPooling2 (None, 2, 2, 32)          0         
_________________________________________________________________
flatten (Flatten)            (None, 128)               0         
_________________________________________________________________
dense (Dense)                (None, 32)                4128      
_________________________________________________________________
dense_1 (Dense)              (None, 32)                1056      
_________________________________________________________________
dense_2 (Dense)              (None, 102)               3366      
=================================================================
Total params: 238,278
Trainable params: 238,278
Non-trainable params: 0
_________________________________________________________________
None
batch size: [32]	learning rate: 5e-05	max epochs: 300


items/class:  10  patience:  250
             precision recall  f1-score  support
0                    0      0     0.000       20
…
4                 0.06  0.089     0.071       45
...                ...    ...       ...      ...
100              0.049  0.053     0.051       38
101              0.018  0.036     0.024       28
accuracy             -      -     0.053     6149
macro avg        0.054  0.061     0.052     6149
weighted avg      0.06  0.053     0.052     6149

[105 rows x 4 columns]
mcc:  0.043
last epoch:  284

Model: "sequential"
_________________________________________________________________
Layer (type)                 Output Shape              Param #   
=================================================================
conv2d (Conv2D)              (None, 32, 32, 128)       6400      
_________________________________________________________________
max_pooling2d (MaxPooling2D) (None, 8, 8, 128)         0         
_________________________________________________________________
flatten (Flatten)            (None, 8192)              0         
_________________________________________________________________
dense (Dense)                (None, 32)                262176    
_________________________________________________________________
dense_1 (Dense)              (None, 102)               3366      
=================================================================
Total params: 271,942
Trainable params: 271,942
Non-trainable params: 0
_________________________________________________________________
None
batch size: [32]	learning rate: 5e-05	max epochs: 300


items/class:  10  patience:  250
             precision recall  f1-score  support
0                0.029   0.05     0.037       20
…
