Model: "sequential"
_________________________________________________________________
Layer (type)                 Output Shape              Param #   
=================================================================
conv2d (Conv2D)              (None, 32, 32, 128)       6400      
_________________________________________________________________
max_pooling2d (MaxPooling2D) (None, 8, 8, 128)         0         
_________________________________________________________________
conv2d_1 (Conv2D)            (None, 8, 8, 64)          204864    
_________________________________________________________________
conv2d_2 (Conv2D)            (None, 8, 8, 32)          18464     
_________________________________________________________________
max_pooling2d_1 (MaxPooling2 (None, 2, 2, 32)          0         
_________________________________________________________________
global_average_pooling2d (Gl (None, 32)                0         
_________________________________________________________________
dense (Dense)                (None, 102)               3366      
=================================================================
Total params: 233,094
Trainable params: 233,094
Non-trainable params: 0
_________________________________________________________________
None
batch size: [20]	learning rate: 0.0001	max epochs: 80


items/class:  10  patience:  55
             precision recall  f1-score  support
0                    0      0     0.000       20
…
