Model: "sequential_3"
_________________________________________________________________
Layer (type)                 Output Shape              Param #   
=================================================================
conv2d_12 (Conv2D)           (None, 32, 32, 128)       18944     
_________________________________________________________________
max_pooling2d_3 (MaxPooling2 (None, 8, 8, 128)         0         
_________________________________________________________________
conv2d_13 (Conv2D)           (None, 8, 8, 128)         802944    
_________________________________________________________________
conv2d_14 (Conv2D)           (None, 8, 8, 64)          401472    
_________________________________________________________________
conv2d_15 (Conv2D)           (None, 8, 8, 64)          200768    
_________________________________________________________________
flatten_3 (Flatten)          (None, 4096)              0         
_________________________________________________________________
dense_9 (Dense)              (None, 48)                196656    
_________________________________________________________________
dense_10 (Dense)             (None, 32)                1568      
_________________________________________________________________
dense_11 (Dense)             (None, 10)                330       
=================================================================
Total params: 1,622,682
Trainable params: 1,622,682
Non-trainable params: 0
_________________________________________________________________
None
batch size: [20, 28, 32, 48]	learning rate: 5e-05	max epochs: 80


items/class:  10  patience:  20
             precision recall  f1-score  support
0                0.424  0.282     0.339     1000
…
