Model: "sequential_3"
_________________________________________________________________
Layer (type)                 Output Shape              Param #   
=================================================================
up_sampling2d_3 (UpSampling2 (None, 224, 224, 3)       0         
_________________________________________________________________
efficientnetb0 (Functional)  (None, 7, 7, 1280)        4049571   
_________________________________________________________________
global_average_pooling2d_3 ( (None, 1280)              0         
_________________________________________________________________
batch_normalization_18 (Batc (None, 1280)              5120      
_________________________________________________________________
dense_33 (Dense)             (None, 512)               655872    
_________________________________________________________________
dropout_30 (Dropout)         (None, 512)               0         
_________________________________________________________________
batch_normalization_19 (Batc (None, 512)               2048      
_________________________________________________________________
dense_34 (Dense)             (None, 512)               262656    
_________________________________________________________________
dropout_31 (Dropout)         (None, 512)               0         
_________________________________________________________________
batch_normalization_20 (Batc (None, 512)               2048      
_________________________________________________________________
dense_35 (Dense)             (None, 512)               262656    
_________________________________________________________________
dropout_32 (Dropout)         (None, 512)               0         
_________________________________________________________________
batch_normalization_21 (Batc (None, 512)               2048      
_________________________________________________________________
dense_36 (Dense)             (None, 512)               262656    
_________________________________________________________________
dropout_33 (Dropout)         (None, 512)               0         
_________________________________________________________________
batch_normalization_22 (Batc (None, 512)               2048      
_________________________________________________________________
dense_37 (Dense)             (None, 512)               262656    
_________________________________________________________________
dropout_34 (Dropout)         (None, 512)               0         
_________________________________________________________________
batch_normalization_23 (Batc (None, 512)               2048      
_________________________________________________________________
dense_38 (Dense)             (None, 512)               262656    
_________________________________________________________________
dropout_35 (Dropout)         (None, 512)               0         
_________________________________________________________________
dense_39 (Dense)             (None, 256)               131328    
_________________________________________________________________
dropout_36 (Dropout)         (None, 256)               0         
_________________________________________________________________
dense_40 (Dense)             (None, 256)               65792     
_________________________________________________________________
dropout_37 (Dropout)         (None, 256)               0         
_________________________________________________________________
dense_41 (Dense)             (None, 256)               65792     
_________________________________________________________________
dropout_38 (Dropout)         (None, 256)               0         
_________________________________________________________________
dense_42 (Dense)             (None, 256)               65792     
_________________________________________________________________
dropout_39 (Dropout)         (None, 256)               0         
_________________________________________________________________
dense_43 (Dense)             (None, 10)                2570      
=================================================================
Total params: 6,365,357
Trainable params: 2,308,106
Non-trainable params: 4,057,251
_________________________________________________________________
None
batch size: [20, 32, 32, 32]	learning rate: 0.0001	max epochs: 350


items/class:  10  patience:  20
             precision recall  f1-score  support
0                0.182  0.002     0.004     1000
…
