Model: "sequential_3"
_________________________________________________________________
Layer (type)                 Output Shape              Param #   
=================================================================
up_sampling2d_3 (UpSampling2 (None, 224, 224, 3)       0         
_________________________________________________________________
efficientnetb0 (Functional)  (None, 7, 7, 1280)        4049571   
_________________________________________________________________
global_average_pooling2d_3 ( (None, 1280)              0         
_________________________________________________________________
batch_normalization_18 (Batc (None, 1280)              5120      
_________________________________________________________________
dense_33 (Dense)             (None, 512)               655872    
_________________________________________________________________
dropout_30 (Dropout)         (None, 512)               0         
_________________________________________________________________
batch_normalization_19 (Batc (None, 512)               2048      
_________________________________________________________________
dense_34 (Dense)             (None, 512)               262656    
_________________________________________________________________
dropout_31 (Dropout)         (None, 512)               0         
_________________________________________________________________
batch_normalization_20 (Batc (None, 512)               2048      
_________________________________________________________________
dense_35 (Dense)             (None, 512)               262656    
_________________________________________________________________
dropout_32 (Dropout)         (None, 512)               0         
_________________________________________________________________
batch_normalization_21 (Batc (None, 512)               2048      
_________________________________________________________________
dense_36 (Dense)             (None, 512)               262656    
_________________________________________________________________
dropout_33 (Dropout)         (None, 512)               0         
_________________________________________________________________
batch_normalization_22 (Batc (None, 512)               2048      
_________________________________________________________________
dense_37 (Dense)             (None, 512)               262656    
_________________________________________________________________
dropout_34 (Dropout)         (None, 512)               0         
_________________________________________________________________
batch_normalization_23 (Batc (None, 512)               2048      
_________________________________________________________________
dense_38 (Dense)             (None, 512)               262656    
_________________________________________________________________
dropout_35 (Dropout)         (None, 512)               0         
_________________________________________________________________
dense_39 (Dense)             (None, 256)               131328    
_________________________________________________________________
dropout_36 (Dropout)         (None, 256)               0         
_________________________________________________________________
dense_40 (Dense)             (None, 256)               65792     
_________________________________________________________________
dropout_37 (Dropout)         (None, 256)               0         
_________________________________________________________________
dense_41 (Dense)             (None, 256)               65792     
_________________________________________________________________
dropout_38 (Dropout)         (None, 256)               0         
_________________________________________________________________
dense_42 (Dense)             (None, 256)               65792     
_________________________________________________________________
dropout_39 (Dropout)         (None, 256)               0         
_________________________________________________________________
dense_43 (Dense)             (None, 10)                2570      
=================================================================
Total params: 6,365,357
Trainable params: 2,308,106
Non-trainable params: 4,057,251
_________________________________________________________________
None
batch size: [20, 32, 32, 32]	learning rate: 0.0001	max epochs: 350


items/class:  10  patience:  20
             precision recall  f1-score  support
0                0.182  0.002     0.004     1000
…
6                0.788  0.705     0.744     1000
7                0.836  0.721     0.774     1000
8                0.865    0.8     0.831     1000
9                0.683  0.875     0.767     1000
accuracy             -      -     0.700    10000
macro avg        0.726    0.7     0.702    10000
weighted avg     0.726    0.7     0.702    10000
mcc:  0.669
last epoch:  344
2021-01-18 15:28:38.883476

Model: "sequential"
_________________________________________________________________
Layer (type)                 Output Shape              Param #   
=================================================================
conv2d (Conv2D)              (None, 32, 32, 128)       18944     
_________________________________________________________________
batch_normalization (BatchNo (None, 32, 32, 128)       512       
_________________________________________________________________
max_pooling2d (MaxPooling2D) (None, 8, 8, 128)         0         
_________________________________________________________________
conv2d_1 (Conv2D)            (None, 8, 8, 128)         802944    
_________________________________________________________________
batch_normalization_1 (Batch (None, 8, 8, 128)         512       
_________________________________________________________________
conv2d_2 (Conv2D)            (None, 8, 8, 64)          401472    
_________________________________________________________________
batch_normalization_2 (Batch (None, 8, 8, 64)          256       
_________________________________________________________________
conv2d_3 (Conv2D)            (None, 8, 8, 64)          200768    
_________________________________________________________________
global_average_pooling2d (Gl (None, 64)                0         
_________________________________________________________________
dense (Dense)                (None, 64)                4160      
_________________________________________________________________
dropout (Dropout)            (None, 64)                0         
_________________________________________________________________
dense_1 (Dense)              (None, 64)                4160      
_________________________________________________________________
dropout_1 (Dropout)          (None, 64)                0         
_________________________________________________________________
dense_2 (Dense)              (None, 64)                4160      
_________________________________________________________________
dropout_2 (Dropout)          (None, 64)                0         
_________________________________________________________________
dense_3 (Dense)              (None, 10)                650       
=================================================================
Total params: 1,438,538
Trainable params: 1,437,898
Non-trainable params: 640
_________________________________________________________________
None
batch size: [20]	learning rate: 5e-05	max epochs: 350


items/class:  10  patience:  160
             precision recall  f1-score  support
0                0.349  0.224     0.273     1000
…
6                0.324  0.254     0.285     1000
7                0.206  0.335     0.255     1000
8                0.473  0.275     0.348     1000
9                0.241  0.277     0.258     1000
accuracy             -      -     0.254    10000
macro avg          0.3  0.254     0.246    10000
weighted avg       0.3  0.254     0.246    10000
mcc:  0.175
last epoch:  265

2021-02-07 23:59:07.654567
Model: "sequential"
_________________________________________________________________
Layer (type)                 Output Shape              Param #   
=================================================================
conv2d (Conv2D)              (None, 32, 32, 128)       18944     
_________________________________________________________________
batch_normalization (BatchNo (None, 32, 32, 128)       512       
_________________________________________________________________
max_pooling2d (MaxPooling2D) (None, 8, 8, 128)         0         
_________________________________________________________________
conv2d_1 (Conv2D)            (None, 8, 8, 128)         802944    
_________________________________________________________________
batch_normalization_1 (Batch (None, 8, 8, 128)         512       
_________________________________________________________________
conv2d_2 (Conv2D)            (None, 8, 8, 64)          401472    
_________________________________________________________________
batch_normalization_2 (Batch (None, 8, 8, 64)          256       
_________________________________________________________________
conv2d_3 (Conv2D)            (None, 8, 8, 64)          200768    
_________________________________________________________________
global_average_pooling2d (Gl (None, 64)                0         
_________________________________________________________________
dense (Dense)                (None, 64)                4160      
_________________________________________________________________
dropout (Dropout)            (None, 64)                0         
_________________________________________________________________
batch_normalization_3 (Batch (None, 64)                256       
_________________________________________________________________
dense_1 (Dense)              (None, 64)                4160      
_________________________________________________________________
batch_normalization_4 (Batch (None, 64)                256       
_________________________________________________________________
dropout_1 (Dropout)          (None, 64)                0         
_________________________________________________________________
dense_2 (Dense)              (None, 64)                4160      
_________________________________________________________________
dropout_2 (Dropout)          (None, 64)                0         
_________________________________________________________________
dense_3 (Dense)              (None, 10)                650       
=================================================================
Total params: 1,439,050
Trainable params: 1,438,154
Non-trainable params: 896
_________________________________________________________________
None
batch size: [20]	learning rate: 5e-05	max epochs: 350


items/class:  10  patience:  20
             precision recall  f1-score  support
0                0.265  0.018     0.034     1000
…
6                0.234  0.412     0.299     1000
7                 0.18  0.293     0.223     1000
8                0.159  0.727     0.261     1000
9                0.216  0.158     0.182     1000
accuracy             -      -     0.175    10000
macro avg        0.152  0.175     0.121    10000
weighted avg     0.152  0.175     0.121    10000
mcc:  0.093
last epoch:  124

2021-02-08 14:10:25.433178
Model: "sequential"
_________________________________________________________________
Layer (type)                 Output Shape              Param #   
=================================================================
conv2d (Conv2D)              (None, 32, 32, 128)       18944     
_________________________________________________________________
batch_normalization (BatchNo (None, 32, 32, 128)       512       
_________________________________________________________________
re_lu (ReLU)                 (None, 32, 32, 128)       0         
_________________________________________________________________
max_pooling2d (MaxPooling2D) (None, 8, 8, 128)         0         
_________________________________________________________________
conv2d_1 (Conv2D)            (None, 8, 8, 128)         802944    
_________________________________________________________________
batch_normalization_1 (Batch (None, 8, 8, 128)         512       
_________________________________________________________________
re_lu_1 (ReLU)               (None, 8, 8, 128)         0         
_________________________________________________________________
conv2d_2 (Conv2D)            (None, 8, 8, 64)          401472    
_________________________________________________________________
batch_normalization_2 (Batch (None, 8, 8, 64)          256       
_________________________________________________________________
re_lu_2 (ReLU)               (None, 8, 8, 64)          0         
_________________________________________________________________
conv2d_3 (Conv2D)            (None, 8, 8, 64)          200768    
_________________________________________________________________
global_average_pooling2d (Gl (None, 64)                0         
_________________________________________________________________
dense (Dense)                (None, 64)                4160      
_________________________________________________________________
batch_normalization_3 (Batch (None, 64)                256       
_________________________________________________________________
re_lu_3 (ReLU)               (None, 64)                0         
_________________________________________________________________
dropout (Dropout)            (None, 64)                0         
_________________________________________________________________
dense_1 (Dense)              (None, 64)                4160      
_________________________________________________________________
dropout_1 (Dropout)          (None, 64)                0         
_________________________________________________________________
dense_2 (Dense)              (None, 64)                4160      
_________________________________________________________________
dropout_2 (Dropout)          (None, 64)                0         
_________________________________________________________________
dense_3 (Dense)              (None, 10)                650       
=================================================================
Total params: 1,438,794
Trainable params: 1,438,026
Non-trainable params: 768
_________________________________________________________________
None
batch size: [20]	learning rate: 5e-05	max epochs: 350


items/class:  10  patience:  40
             precision recall  f1-score  support
0                0.603  0.035     0.066     1000
…
6                0.105  0.567     0.177     1000
7                    0      0     0.000     1000
8                    0      0     0.000     1000
9                    0      0     0.000     1000
accuracy             -      -     0.101    10000
macro avg        0.224  0.101     0.047    10000
weighted avg     0.224  0.101     0.047    10000
mcc:  0.001
last epoch:  53

2021-02-08 15:00:27.234443
Model: "sequential"
_________________________________________________________________
Layer (type)                 Output Shape              Param #   
=================================================================
conv2d (Conv2D)              (None, 32, 32, 128)       18944     
_________________________________________________________________
batch_normalization (BatchNo (None, 32, 32, 128)       512       
_________________________________________________________________
re_lu (ReLU)                 (None, 32, 32, 128)       0         
_________________________________________________________________
max_pooling2d (MaxPooling2D) (None, 8, 8, 128)         0         
_________________________________________________________________
conv2d_1 (Conv2D)            (None, 8, 8, 128)         802944    
_________________________________________________________________
batch_normalization_1 (Batch (None, 8, 8, 128)         512       
_________________________________________________________________
re_lu_1 (ReLU)               (None, 8, 8, 128)         0         
_________________________________________________________________
conv2d_2 (Conv2D)            (None, 8, 8, 64)          401472    
_________________________________________________________________
batch_normalization_2 (Batch (None, 8, 8, 64)          256       
_________________________________________________________________
re_lu_2 (ReLU)               (None, 8, 8, 64)          0         
_________________________________________________________________
conv2d_3 (Conv2D)            (None, 8, 8, 64)          200768    
_________________________________________________________________
global_average_pooling2d (Gl (None, 64)                0         
_________________________________________________________________
dense (Dense)                (None, 64)                4160      
_________________________________________________________________
dropout (Dropout)            (None, 64)                0         
_________________________________________________________________
dense_1 (Dense)              (None, 64)                4160      
_________________________________________________________________
dropout_1 (Dropout)          (None, 64)                0         
_________________________________________________________________
dense_2 (Dense)              (None, 64)                4160      
_________________________________________________________________
dropout_2 (Dropout)          (None, 64)                0         
_________________________________________________________________
dense_3 (Dense)              (None, 10)                650       
=================================================================
Total params: 1,438,538
Trainable params: 1,437,898
Non-trainable params: 640
_________________________________________________________________
None
batch size: [20]	learning rate: 5e-05	max epochs: 350


items/class:  10  patience:  40
             precision recall  f1-score  support
0                0.261  0.388     0.312     1000
…
6                0.269   0.18     0.216     1000
7                0.234  0.247     0.240     1000
8                0.335  0.325     0.330     1000
9                0.161  0.489     0.242     1000
accuracy             -      -     0.221    10000
macro avg        0.241  0.221     0.184    10000
weighted avg     0.241  0.221     0.184    10000
mcc:  0.142
last epoch:  185

2021-02-09 03:00:39.036716
Model: "sequential"
_________________________________________________________________
Layer (type)                 Output Shape              Param #   
=================================================================
conv2d (Conv2D)              (None, 32, 32, 128)       18944     
_________________________________________________________________
batch_normalization (BatchNo (None, 32, 32, 128)       512       
_________________________________________________________________
max_pooling2d (MaxPooling2D) (None, 8, 8, 128)         0         
_________________________________________________________________
conv2d_1 (Conv2D)            (None, 8, 8, 128)         802944    
_________________________________________________________________
batch_normalization_1 (Batch (None, 8, 8, 128)         512       
_________________________________________________________________
conv2d_2 (Conv2D)            (None, 8, 8, 64)          401472    
_________________________________________________________________
batch_normalization_2 (Batch (None, 8, 8, 64)          256       
_________________________________________________________________
conv2d_3 (Conv2D)            (None, 8, 8, 64)          200768    
_________________________________________________________________
global_average_pooling2d (Gl (None, 64)                0         
_________________________________________________________________
dense (Dense)                (None, 128)               8320      
_________________________________________________________________
dropout (Dropout)            (None, 128)               0         
_________________________________________________________________
dense_1 (Dense)              (None, 128)               16512     
_________________________________________________________________
dropout_1 (Dropout)          (None, 128)               0         
_________________________________________________________________
dense_2 (Dense)              (None, 128)               16512     
_________________________________________________________________
dropout_2 (Dropout)          (None, 128)               0         
_________________________________________________________________
dense_3 (Dense)              (None, 10)                1290      
=================================================================
Total params: 1,468,042
Trainable params: 1,467,402
Non-trainable params: 640
_________________________________________________________________
None
batch size: [20]	learning rate: 5e-05	max epochs: 350


items/class:  10  patience:  80
             precision recall  f1-score  support
0                0.281  0.096     0.143     1000
…
6                0.274  0.353     0.309     1000
7                0.284  0.289     0.287     1000
8                0.336  0.452     0.386     1000
9                0.315  0.377     0.343     1000
accuracy             -      -     0.269    10000
macro avg        0.287  0.269     0.264    10000
weighted avg     0.287  0.269     0.264    10000
mcc:  0.191
last epoch:  208

2021-02-09 03:34:01.839453
Model: "sequential"
_________________________________________________________________
Layer (type)                 Output Shape              Param #   
=================================================================
conv2d (Conv2D)              (None, 32, 32, 128)       18944     
_________________________________________________________________
batch_normalization (BatchNo (None, 32, 32, 128)       512       
_________________________________________________________________
max_pooling2d (MaxPooling2D) (None, 8, 8, 128)         0         
_________________________________________________________________
conv2d_1 (Conv2D)            (None, 8, 8, 128)         802944    
_________________________________________________________________
conv2d_2 (Conv2D)            (None, 8, 8, 64)          401472    
_________________________________________________________________
conv2d_3 (Conv2D)            (None, 8, 8, 64)          200768    
_________________________________________________________________
global_average_pooling2d (Gl (None, 64)                0         
_________________________________________________________________
dropout (Dropout)            (None, 64)                0         
_________________________________________________________________
dense (Dense)                (None, 128)               8320      
_________________________________________________________________
batch_normalization_1 (Batch (None, 128)               512       
_________________________________________________________________
dropout_1 (Dropout)          (None, 128)               0         
_________________________________________________________________
dense_1 (Dense)              (None, 128)               16512     
_________________________________________________________________
batch_normalization_2 (Batch (None, 128)               512       
_________________________________________________________________
dropout_2 (Dropout)          (None, 128)               0         
_________________________________________________________________
dense_2 (Dense)              (None, 128)               16512     
_________________________________________________________________
dropout_3 (Dropout)          (None, 128)               0         
_________________________________________________________________
dense_3 (Dense)              (None, 10)                1290      
=================================================================
Total params: 1,468,298
Trainable params: 1,467,530
Non-trainable params: 768
_________________________________________________________________
None
batch size: [20]	learning rate: 5e-05	max epochs: 350


items/class:  10  patience:  80
             precision recall  f1-score  support
0                0.187  0.017     0.031     1000
…
6                0.518  0.613     0.562     1000
7                0.869  0.172     0.287     1000
8                0.509  0.812     0.626     1000
9                0.646  0.408     0.500     1000
accuracy             -      -     0.464    10000
macro avg        0.519  0.464     0.447    10000
weighted avg     0.519  0.464     0.447    10000
mcc:  0.409
last epoch:  62

2021-02-14 22:27:28.248415
Model: "sequential_3"
_________________________________________________________________
Layer (type)                 Output Shape              Param #   
=================================================================
conv2d_12 (Conv2D)           (None, 32, 32, 128)       18944     
_________________________________________________________________
batch_normalization_3 (Batch (None, 32, 32, 128)       512       
_________________________________________________________________
max_pooling2d_3 (MaxPooling2 (None, 8, 8, 128)         0         
_________________________________________________________________
conv2d_13 (Conv2D)           (None, 8, 8, 128)         802944    
_________________________________________________________________
conv2d_14 (Conv2D)           (None, 8, 8, 64)          401472    
_________________________________________________________________
conv2d_15 (Conv2D)           (None, 8, 8, 64)          200768    
_________________________________________________________________
global_average_pooling2d_3 ( (None, 64)                0         
_________________________________________________________________
dropout_9 (Dropout)          (None, 64)                0         
_________________________________________________________________
dense_9 (Dense)              (None, 48)                3120      
_________________________________________________________________
dropout_10 (Dropout)         (None, 48)                0         
_________________________________________________________________
dense_10 (Dense)             (None, 32)                1568      
_________________________________________________________________
dropout_11 (Dropout)         (None, 32)                0         
_________________________________________________________________
dense_11 (Dense)             (None, 10)                330       
=================================================================
Total params: 1,429,658
Trainable params: 1,429,402
Non-trainable params: 256
_________________________________________________________________
None
batch size: [20, 32, 32, 32]	learning rate: 5e-05	max epochs: 350


items/class:  10  patience:  80
             precision recall  f1-score  support
0                0.478  0.313     0.378     1000
…
6                 0.58   0.78     0.666     1000
7                0.576  0.672     0.620     1000
8                 0.74  0.694     0.716     1000
9                0.553  0.752     0.637     1000
accuracy             -      -     0.552    10000
macro avg        0.565  0.552     0.543    10000
weighted avg     0.565  0.552     0.543    10000
mcc:  0.505
last epoch:  61

2021-02-15 21:21:24.248630
Model: "sequential"
_________________________________________________________________
Layer (type)                 Output Shape              Param #   
=================================================================
conv2d (Conv2D)              (None, 32, 32, 128)       18944     
_________________________________________________________________
batch_normalization (BatchNo (None, 32, 32, 128)       512       
_________________________________________________________________
max_pooling2d (MaxPooling2D) (None, 8, 8, 128)         0         
_________________________________________________________________
conv2d_1 (Conv2D)            (None, 8, 8, 128)         802944    
_________________________________________________________________
conv2d_2 (Conv2D)            (None, 8, 8, 64)          401472    
_________________________________________________________________
conv2d_3 (Conv2D)            (None, 8, 8, 128)         401536    
_________________________________________________________________
global_average_pooling2d (Gl (None, 128)               0         
_________________________________________________________________
dropout (Dropout)            (None, 128)               0         
_________________________________________________________________
dense (Dense)                (None, 48)                6192      
_________________________________________________________________
dropout_1 (Dropout)          (None, 48)                0         
_________________________________________________________________
dense_1 (Dense)              (None, 32)                1568      
_________________________________________________________________
dropout_2 (Dropout)          (None, 32)                0         
_________________________________________________________________
dense_2 (Dense)              (None, 10)                330       
=================================================================
Total params: 1,633,498
Trainable params: 1,633,242
Non-trainable params: 256
_________________________________________________________________
None
batch size: [32]	learning rate: 5e-05	max epochs: 350


items/class:  10  patience:  80
             precision recall  f1-score  support
0                 0.36   0.05     0.088     1000
…
6                0.178  0.201     0.189     1000
7                0.389  0.169     0.236     1000
8                0.341  0.624     0.441     1000
9                0.286  0.426     0.342     1000
accuracy             -      -     0.252    10000
macro avg        0.258  0.252     0.211    10000
weighted avg     0.258  0.252     0.211    10000
mcc:  0.175
last epoch:  350

2021-02-16 11:45:00.477512
Model: "sequential"
_________________________________________________________________
Layer (type)                 Output Shape              Param #   
=================================================================
conv2d (Conv2D)              (None, 32, 32, 128)       18944     
_________________________________________________________________
batch_normalization (BatchNo (None, 32, 32, 128)       512       
_________________________________________________________________
max_pooling2d (MaxPooling2D) (None, 8, 8, 128)         0         
_________________________________________________________________
conv2d_1 (Conv2D)            (None, 8, 8, 128)         802944    
_________________________________________________________________
conv2d_2 (Conv2D)            (None, 8, 8, 64)          401472    
_________________________________________________________________
conv2d_3 (Conv2D)            (None, 8, 8, 128)         401536    
_________________________________________________________________
global_average_pooling2d (Gl (None, 128)               0         
_________________________________________________________________
dropout (Dropout)            (None, 128)               0         
_________________________________________________________________
dense (Dense)                (None, 64)                8256      
_________________________________________________________________
dropout_1 (Dropout)          (None, 64)                0         
_________________________________________________________________
dense_1 (Dense)              (None, 64)                4160      
_________________________________________________________________
dropout_2 (Dropout)          (None, 64)                0         
_________________________________________________________________
dense_2 (Dense)              (None, 10)                650       
=================================================================
Total params: 1,638,474
Trainable params: 1,638,218
Non-trainable params: 256
_________________________________________________________________
None
batch size: [32]	learning rate: 5e-05	max epochs: 350


items/class:  10  patience:  80
             precision recall  f1-score  support
0                0.267  0.356     0.305     1000
…
6                0.249  0.184     0.212     1000
7                0.295  0.335     0.314     1000
8                0.461   0.32     0.378     1000
9                0.218  0.185     0.200     1000
accuracy             -      -     0.276    10000
macro avg        0.274  0.276     0.260    10000
weighted avg     0.274  0.276     0.260    10000
mcc:  0.199
last epoch:  269

2021-02-17 23:10:28.371830
Model: "sequential"
_________________________________________________________________
Layer (type)                 Output Shape              Param #   
=================================================================
conv2d (Conv2D)              (None, 32, 32, 128)       18944     
_________________________________________________________________
batch_normalization (BatchNo (None, 32, 32, 128)       512       
_________________________________________________________________
max_pooling2d (MaxPooling2D) (None, 8, 8, 128)         0         
_________________________________________________________________
conv2d_1 (Conv2D)            (None, 8, 8, 128)         802944    
_________________________________________________________________
batch_normalization_1 (Batch (None, 8, 8, 128)         512       
_________________________________________________________________
conv2d_2 (Conv2D)            (None, 8, 8, 64)          401472    
_________________________________________________________________
batch_normalization_2 (Batch (None, 8, 8, 64)          256       
_________________________________________________________________
conv2d_3 (Conv2D)            (None, 8, 8, 64)          200768    
_________________________________________________________________
global_average_pooling2d (Gl (None, 64)                0         
_________________________________________________________________
dropout (Dropout)            (None, 64)                0         
_________________________________________________________________
dense (Dense)                (None, 64)                4160      
_________________________________________________________________
dropout_1 (Dropout)          (None, 64)                0         
_________________________________________________________________
dense_1 (Dense)              (None, 64)                4160      
_________________________________________________________________
dropout_2 (Dropout)          (None, 64)                0         
_________________________________________________________________
dense_2 (Dense)              (None, 64)                4160      
_________________________________________________________________
dropout_3 (Dropout)          (None, 64)                0         
_________________________________________________________________
dense_3 (Dense)              (None, 10)                650       
=================================================================
Total params: 1,438,538
Trainable params: 1,437,898
Non-trainable params: 640
_________________________________________________________________
None
batch size: [20]	learning rate: 5e-05	max epochs: 350


items/class:  10  patience:  125
             precision recall  f1-score  support
0                0.295  0.306     0.301     1000
…
