Model: "sequential_3"
_________________________________________________________________
Layer (type)                 Output Shape              Param #   
=================================================================
conv2d_12 (Conv2D)           (None, 32, 32, 128)       18944     
_________________________________________________________________
batch_normalization_3 (Batch (None, 32, 32, 128)       512       
_________________________________________________________________
max_pooling2d_3 (MaxPooling2 (None, 8, 8, 128)         0         
_________________________________________________________________
conv2d_13 (Conv2D)           (None, 8, 8, 128)         802944    
_________________________________________________________________
conv2d_14 (Conv2D)           (None, 8, 8, 64)          401472    
_________________________________________________________________
conv2d_15 (Conv2D)           (None, 8, 8, 64)          200768    
_________________________________________________________________
global_average_pooling2d_3 ( (None, 64)                0         
_________________________________________________________________
dropout_3 (Dropout)          (None, 64)                0         
_________________________________________________________________
dense_3 (Dense)              (None, 10)                650       
=================================================================
Total params: 1,425,290
Trainable params: 1,425,034
Non-trainable params: 256
_________________________________________________________________
None
batch size: [20, 32, 32, 32]	learning rate: 5e-05	max epochs: 350


items/class:  10  patience:  90
             precision recall  f1-score  support
0                0.385  0.383     0.384     1000
…
