Model: "sequential_3"
_________________________________________________________________
Layer (type)                 Output Shape              Param #   
=================================================================
up_sampling2d_3 (UpSampling2 (None, 224, 224, 3)       0         
_________________________________________________________________
efficientnetb0 (Functional)  (None, 7, 7, 1280)        4049571   
_________________________________________________________________
global_average_pooling2d_3 ( (None, 1280)              0         
_________________________________________________________________
dropout_21 (Dropout)         (None, 1280)              0         
_________________________________________________________________
dense_24 (Dense)             (None, 512)               655872    
_________________________________________________________________
dropout_22 (Dropout)         (None, 512)               0         
_________________________________________________________________
batch_normalization_12 (Batc (None, 512)               2048      
_________________________________________________________________
dense_25 (Dense)             (None, 512)               262656    
_________________________________________________________________
dropout_23 (Dropout)         (None, 512)               0         
_________________________________________________________________
batch_normalization_13 (Batc (None, 512)               2048      
_________________________________________________________________
dense_26 (Dense)             (None, 512)               262656    
_________________________________________________________________
dropout_24 (Dropout)         (None, 512)               0         
_________________________________________________________________
batch_normalization_14 (Batc (None, 512)               2048      
_________________________________________________________________
dense_27 (Dense)             (None, 512)               262656    
_________________________________________________________________
dropout_25 (Dropout)         (None, 512)               0         
_________________________________________________________________
dense_28 (Dense)             (None, 256)               131328    
_________________________________________________________________
dropout_26 (Dropout)         (None, 256)               0         
_________________________________________________________________
batch_normalization_15 (Batc (None, 256)               1024      
_________________________________________________________________
dense_29 (Dense)             (None, 256)               65792     
_________________________________________________________________
dropout_27 (Dropout)         (None, 256)               0         
_________________________________________________________________
dense_30 (Dense)             (None, 256)               65792     
_________________________________________________________________
dense_31 (Dense)             (None, 10)                2570      
=================================================================
Total params: 5,766,061
Trainable params: 1,712,906
Non-trainable params: 4,053,155
_________________________________________________________________
None
batch size: [20, 32, 32, 32]	learning rate: 0.0001	max epochs: 50


items/class:  10  patience:  10
             precision recall  f1-score  support
0                0.553  0.233     0.328     1000
…
