Model: "sequential_3"
_________________________________________________________________
Layer (type)                 Output Shape              Param #   
=================================================================
conv2d_12 (Conv2D)           (None, 32, 32, 128)       18944     
_________________________________________________________________
max_pooling2d_3 (MaxPooling2 (None, 8, 8, 128)         0         
_________________________________________________________________
conv2d_13 (Conv2D)           (None, 8, 8, 128)         802944    
_________________________________________________________________
conv2d_14 (Conv2D)           (None, 8, 8, 64)          401472    
_________________________________________________________________
conv2d_15 (Conv2D)           (None, 8, 8, 64)          200768    
_________________________________________________________________
global_average_pooling2d_3 ( (None, 64)                0         
_________________________________________________________________
dense_9 (Dense)              (None, 48)                3120      
_________________________________________________________________
dense_10 (Dense)             (None, 32)                1568      
_________________________________________________________________
dense_11 (Dense)             (None, 10)                330       
=================================================================
Total params: 1,429,146
Trainable params: 1,429,146
Non-trainable params: 0
_________________________________________________________________
None
batch size: [20, 64, 128, 128]	learning rate: 5e-05	max epochs: 80


items/class:  10  patience:  30
             precision recall  f1-score  support
0                0.443  0.108     0.174     1000
…
