Model: "sequential_3"
_________________________________________________________________
Layer (type)                 Output Shape              Param #   
=================================================================
conv2d_18 (Conv2D)           (None, 28, 28, 64)        3200      
_________________________________________________________________
batch_normalization_9 (Batch (None, 28, 28, 64)        256       
_________________________________________________________________
max_pooling2d_3 (MaxPooling2 (None, 7, 7, 64)          0         
_________________________________________________________________
batch_normalization_10 (Batc (None, 7, 7, 64)          256       
_________________________________________________________________
conv2d_19 (Conv2D)           (None, 7, 7, 128)         204928    
_________________________________________________________________
batch_normalization_11 (Batc (None, 7, 7, 128)         512       
_________________________________________________________________
conv2d_20 (Conv2D)           (None, 7, 7, 64)          204864    
_________________________________________________________________
conv2d_21 (Conv2D)           (None, 7, 7, 64)          102464    
_________________________________________________________________
conv2d_22 (Conv2D)           (None, 7, 7, 32)          100384    
_________________________________________________________________
conv2d_23 (Conv2D)           (None, 7, 7, 128)         102528    
_________________________________________________________________
flatten_3 (Flatten)          (None, 6272)              0         
_________________________________________________________________
dense_9 (Dense)              (None, 32)                200736    
_________________________________________________________________
dense_10 (Dense)             (None, 32)                1056      
_________________________________________________________________
dense_11 (Dense)             (None, 10)                330       
=================================================================
Total params: 921,514
Trainable params: 921,002
Non-trainable params: 512
_________________________________________________________________
None
batch size: 16	learning rate: 0.004	max epochs: 60


items/class:  10  patience:  10
             precision recall  f1-score  support
0                0.235  0.108     0.148     1000
…
6                0.664  0.511     0.577     1000
7                0.937  0.957     0.947     1000
8                0.934  0.972     0.952     1000
9                0.974  0.946     0.960     1000
accuracy             -      -     0.850    10000
macro avg        0.852  0.849     0.848    10000
weighted avg     0.852   0.85     0.848    10000
mcc:  0.834
last epoch:  28

Model: "sequential_3"
_________________________________________________________________
Layer (type)                 Output Shape              Param #   
=================================================================
conv2d_18 (Conv2D)           (None, 28, 28, 64)        3200      
_________________________________________________________________
batch_normalization_6 (Batch (None, 28, 28, 64)        256       
_________________________________________________________________
max_pooling2d_6 (MaxPooling2 (None, 14, 14, 64)        0         
_________________________________________________________________
conv2d_19 (Conv2D)           (None, 14, 14, 128)       204928    
_________________________________________________________________
batch_normalization_7 (Batch (None, 14, 14, 128)       512       
_________________________________________________________________
max_pooling2d_7 (MaxPooling2 (None, 7, 7, 128)         0         
_________________________________________________________________
conv2d_20 (Conv2D)           (None, 7, 7, 64)          204864    
_________________________________________________________________
conv2d_21 (Conv2D)           (None, 7, 7, 64)          102464    
_________________________________________________________________
conv2d_22 (Conv2D)           (None, 7, 7, 128)         204928    
_________________________________________________________________
conv2d_23 (Conv2D)           (None, 7, 7, 128)         409728    
_________________________________________________________________
flatten_3 (Flatten)          (None, 6272)              0         
_________________________________________________________________
dense_12 (Dense)             (None, 64)                401472    
_________________________________________________________________
dense_13 (Dense)             (None, 64)                4160      
_________________________________________________________________
dense_14 (Dense)             (None, 64)                4160      
_________________________________________________________________
dense_15 (Dense)             (None, 10)                650       
=================================================================
Total params: 1,541,322
Trainable params: 1,540,938
Non-trainable params: 384
_________________________________________________________________
None
batch size: 32	learning rate: 0.001	max epochs: 80


items/class:  10  patience:  20
             precision recall  f1-score  support
0                0.195  0.957     0.324     1000
…
6                    0      0     0.000     1000
7                    0      0     0.000     1000
8                    0      0     0.000     1000
9                    0      0     0.000     1000
accuracy             -      -     0.103    10000
macro avg        0.024  0.103     0.023    10000
weighted avg     0.024  0.103     0.023    10000
mcc:  0.015
last epoch:  27

Model: "sequential"
_________________________________________________________________
Layer (type)                 Output Shape              Param #   
=================================================================
conv2d (Conv2D)              (None, 28, 28, 64)        3200      
_________________________________________________________________
batch_normalization (BatchNo (None, 28, 28, 64)        256       
_________________________________________________________________
max_pooling2d (MaxPooling2D) (None, 14, 14, 64)        0         
_________________________________________________________________
conv2d_1 (Conv2D)            (None, 14, 14, 128)       204928    
_________________________________________________________________
max_pooling2d_1 (MaxPooling2 (None, 7, 7, 128)         0         
_________________________________________________________________
conv2d_2 (Conv2D)            (None, 7, 7, 64)          204864    
_________________________________________________________________
conv2d_3 (Conv2D)            (None, 7, 7, 64)          102464    
_________________________________________________________________
conv2d_4 (Conv2D)            (None, 7, 7, 128)         204928    
_________________________________________________________________
conv2d_5 (Conv2D)            (None, 7, 7, 128)         409728    
_________________________________________________________________
flatten (Flatten)            (None, 6272)              0         
_________________________________________________________________
dense (Dense)                (None, 64)                401472    
_________________________________________________________________
dense_1 (Dense)              (None, 64)                4160      
_________________________________________________________________
dense_2 (Dense)              (None, 64)                4160      
_________________________________________________________________
dense_3 (Dense)              (None, 10)                650       
=================================================================
Total params: 1,540,810
Trainable params: 1,540,682
Non-trainable params: 128
_________________________________________________________________
None
batch size: [20]	learning rate: 0.001	max epochs: 80


items/class:  10  patience:  20
             precision recall  f1-score  support
0                0.604  0.348     0.442     1000
…
6                0.224  0.211     0.217     1000
7                0.805  0.632     0.708     1000
8                0.846  0.804     0.825     1000
9                0.657  0.961     0.781     1000
accuracy             -      -     0.613    10000
macro avg         0.63  0.613     0.611    10000
weighted avg      0.63  0.613     0.611    10000
mcc:  0.573
last epoch:  63

Model: "sequential"
_________________________________________________________________
Layer (type)                 Output Shape              Param #   
=================================================================
conv2d (Conv2D)              (None, 28, 28, 64)        3200      
_________________________________________________________________
batch_normalization (BatchNo (None, 28, 28, 64)        256       
_________________________________________________________________
max_pooling2d (MaxPooling2D) (None, 14, 14, 64)        0         
_________________________________________________________________
conv2d_1 (Conv2D)            (None, 14, 14, 128)       204928    
_________________________________________________________________
max_pooling2d_1 (MaxPooling2 (None, 7, 7, 128)         0         
_________________________________________________________________
conv2d_2 (Conv2D)            (None, 7, 7, 64)          204864    
_________________________________________________________________
conv2d_3 (Conv2D)            (None, 7, 7, 64)          102464    
_________________________________________________________________
batch_normalization_1 (Batch (None, 7, 7, 64)          256       
_________________________________________________________________
conv2d_4 (Conv2D)            (None, 7, 7, 128)         204928    
_________________________________________________________________
conv2d_5 (Conv2D)            (None, 7, 7, 128)         409728    
_________________________________________________________________
flatten (Flatten)            (None, 6272)              0         
_________________________________________________________________
dense (Dense)                (None, 64)                401472    
_________________________________________________________________
dense_1 (Dense)              (None, 64)                4160      
_________________________________________________________________
dense_2 (Dense)              (None, 64)                4160      
_________________________________________________________________
dense_3 (Dense)              (None, 10)                650       
=================================================================
Total params: 1,541,066
Trainable params: 1,540,810
Non-trainable params: 256
_________________________________________________________________
None
batch size: [20]	learning rate: 0.001	max epochs: 80


items/class:  10  patience:  20
             precision recall  f1-score  support
0                    1  0.002     0.004     1000
…
6                0.149  0.056     0.081     1000
7                    0      0     0.000     1000
8                    0      0     0.000     1000
9                    0      0     0.000     1000
accuracy             -      -     0.110    10000
macro avg        0.143   0.11     0.035    10000
weighted avg     0.143   0.11     0.035    10000
mcc:  0.031
last epoch:  25

Model: "sequential"
_________________________________________________________________
Layer (type)                 Output Shape              Param #   
=================================================================
conv2d (Conv2D)              (None, 28, 28, 64)        3200      
_________________________________________________________________
batch_normalization (BatchNo (None, 28, 28, 64)        256       
_________________________________________________________________
max_pooling2d (MaxPooling2D) (None, 14, 14, 64)        0         
_________________________________________________________________
conv2d_1 (Conv2D)            (None, 14, 14, 128)       204928    
_________________________________________________________________
max_pooling2d_1 (MaxPooling2 (None, 7, 7, 128)         0         
_________________________________________________________________
conv2d_2 (Conv2D)            (None, 7, 7, 64)          204864    
_________________________________________________________________
batch_normalization_1 (Batch (None, 7, 7, 64)          256       
_________________________________________________________________
conv2d_3 (Conv2D)            (None, 7, 7, 64)          102464    
_________________________________________________________________
conv2d_4 (Conv2D)            (None, 7, 7, 128)         204928    
_________________________________________________________________
conv2d_5 (Conv2D)            (None, 7, 7, 128)         409728    
_________________________________________________________________
flatten (Flatten)            (None, 6272)              0         
_________________________________________________________________
dense (Dense)                (None, 64)                401472    
_________________________________________________________________
dense_1 (Dense)              (None, 64)                4160      
_________________________________________________________________
dense_2 (Dense)              (None, 64)                4160      
_________________________________________________________________
dense_3 (Dense)              (None, 10)                650       
=================================================================
Total params: 1,541,066
Trainable params: 1,540,810
Non-trainable params: 256
_________________________________________________________________
None
batch size: [20]	learning rate: 0.001	max epochs: 80


items/class:  10  patience:  20
             precision recall  f1-score  support
0                  0.1  0.996     0.183     1000
…
