Model: "sequential_3"
_________________________________________________________________
Layer (type)                 Output Shape              Param #   
=================================================================
conv2d_18 (Conv2D)           (None, 28, 28, 64)        3200      
_________________________________________________________________
max_pooling2d_6 (MaxPooling2 (None, 14, 14, 64)        0         
_________________________________________________________________
conv2d_19 (Conv2D)           (None, 14, 14, 128)       204928    
_________________________________________________________________
max_pooling2d_7 (MaxPooling2 (None, 7, 7, 128)         0         
_________________________________________________________________
conv2d_20 (Conv2D)           (None, 7, 7, 64)          204864    
_________________________________________________________________
conv2d_21 (Conv2D)           (None, 7, 7, 64)          102464    
_________________________________________________________________
conv2d_22 (Conv2D)           (None, 7, 7, 128)         204928    
_________________________________________________________________
conv2d_23 (Conv2D)           (None, 7, 7, 128)         409728    
_________________________________________________________________
flatten_3 (Flatten)          (None, 6272)              0         
_________________________________________________________________
dense_12 (Dense)             (None, 64)                401472    
_________________________________________________________________
dense_13 (Dense)             (None, 64)                4160      
_________________________________________________________________
dense_14 (Dense)             (None, 64)                4160      
_________________________________________________________________
dense_15 (Dense)             (None, 10)                650       
=================================================================
Total params: 1,540,554
Trainable params: 1,540,554
Non-trainable params: 0
_________________________________________________________________
None
batch size: [20, 32, 32, 32]	learning rate: 0.0005	max epochs: 80


items/class:  10  patience:  15
             precision recall  f1-score  support
0                0.573  0.619     0.595     1000
…
