Model: "sequential_3"
_________________________________________________________________
Layer (type)                 Output Shape              Param #   
=================================================================
conv2d_18 (Conv2D)           (None, 28, 28, 64)        3200      
_________________________________________________________________
max_pooling2d_3 (MaxPooling2 (None, 7, 7, 64)          0         
_________________________________________________________________
conv2d_19 (Conv2D)           (None, 7, 7, 128)         204928    
_________________________________________________________________
conv2d_20 (Conv2D)           (None, 7, 7, 64)          204864    
_________________________________________________________________
conv2d_21 (Conv2D)           (None, 7, 7, 64)          102464    
_________________________________________________________________
conv2d_22 (Conv2D)           (None, 7, 7, 32)          100384    
_________________________________________________________________
conv2d_23 (Conv2D)           (None, 7, 7, 128)         102528    
_________________________________________________________________
flatten_3 (Flatten)          (None, 6272)              0         
_________________________________________________________________
dense_9 (Dense)              (None, 32)                200736    
_________________________________________________________________
dense_10 (Dense)             (None, 32)                1056      
_________________________________________________________________
dense_11 (Dense)             (None, 10)                330       
=================================================================
Total params: 920,490
Trainable params: 920,490
Non-trainable params: 0
_________________________________________________________________
None
batch size: 32	learning rate: 0.001	max epochs: 50


items/class:  10  patience:  10
             precision recall  f1-score  support
0                0.591  0.573     0.582     1000
1                0.738  0.892     0.808     1000
…
6                0.682  0.654     0.668     1000
7                0.935  0.956     0.945     1000
8                0.945  0.972     0.958     1000
9                0.969  0.946     0.957     1000
accuracy             -      -     0.875    10000
macro avg        0.874  0.875     0.874    10000
weighted avg     0.874  0.875     0.874    10000
mcc:  0.861
last epoch:  21

Model: "sequential"
_________________________________________________________________
Layer (type)                 Output Shape              Param #   
=================================================================
conv2d (Conv2D)              (None, 28, 28, 64)        3200      
_________________________________________________________________
max_pooling2d (MaxPooling2D) (None, 14, 14, 64)        0         
_________________________________________________________________
conv2d_1 (Conv2D)            (None, 14, 14, 128)       204928    
_________________________________________________________________
max_pooling2d_1 (MaxPooling2 (None, 7, 7, 128)         0         
_________________________________________________________________
conv2d_2 (Conv2D)            (None, 7, 7, 64)          204864    
_________________________________________________________________
conv2d_3 (Conv2D)            (None, 7, 7, 64)          102464    
_________________________________________________________________
conv2d_4 (Conv2D)            (None, 7, 7, 128)         204928    
_________________________________________________________________
conv2d_5 (Conv2D)            (None, 7, 7, 128)         409728    
_________________________________________________________________
flatten (Flatten)            (None, 6272)              0         
_________________________________________________________________
dense (Dense)                (None, 64)                401472    
_________________________________________________________________
dense_1 (Dense)              (None, 64)                4160      
_________________________________________________________________
dense_2 (Dense)              (None, 64)                4160      
_________________________________________________________________
dense_3 (Dense)              (None, 10)                650       
=================================================================
Total params: 1,540,554
Trainable params: 1,540,554
Non-trainable params: 0
_________________________________________________________________
None
batch size: [20]	learning rate: 0.0005	max epochs: 80


items/class:  10  patience:  50
             precision recall  f1-score  support
0                0.625  0.619     0.622     1000
…
