Model: "sequential_3"
_________________________________________________________________
Layer (type)                 Output Shape              Param #   
=================================================================
up_sampling2d_3 (UpSampling2 (None, 224, 224, 3)       0         
_________________________________________________________________
efficientnetb0 (Functional)  (None, 7, 7, 1280)        4049571   
_________________________________________________________________
global_average_pooling2d_3 ( (None, 1280)              0         
_________________________________________________________________
dropout_18 (Dropout)         (None, 1280)              0         
_________________________________________________________________
dense_21 (Dense)             (None, 512)               655872    
_________________________________________________________________
dropout_19 (Dropout)         (None, 512)               0         
_________________________________________________________________
dense_22 (Dense)             (None, 512)               262656    
_________________________________________________________________
dropout_20 (Dropout)         (None, 512)               0         
_________________________________________________________________
dense_23 (Dense)             (None, 256)               131328    
_________________________________________________________________
dropout_21 (Dropout)         (None, 256)               0         
_________________________________________________________________
dense_24 (Dense)             (None, 256)               65792     
_________________________________________________________________
dropout_22 (Dropout)         (None, 256)               0         
_________________________________________________________________
dense_25 (Dense)             (None, 256)               65792     
_________________________________________________________________
dropout_23 (Dropout)         (None, 256)               0         
_________________________________________________________________
dense_26 (Dense)             (None, 256)               65792     
_________________________________________________________________
dense_27 (Dense)             (None, 10)                2570      
=================================================================
Total params: 5,299,373
Trainable params: 1,249,802
Non-trainable params: 4,049,571
_________________________________________________________________
None
batch size: [20, 32, 32, 32]	learning rate: 0.001	max epochs: 200


items/class:  10  patience:  60
             precision recall  f1-score  support
0                0.739  0.411     0.528     1000
…
6                0.721  0.163     0.266     1000
7                0.648  0.981     0.781     1000
8                0.882  0.913     0.897     1000
9                0.992  0.659     0.792     1000
accuracy             -      -     0.720    10000
macro avg        0.778   0.72     0.710    10000
weighted avg     0.778   0.72     0.710    10000
mcc:  0.698
last epoch:  123

Model: "sequential_3"
_________________________________________________________________
Layer (type)                 Output Shape              Param #   
=================================================================
up_sampling2d_3 (UpSampling2 (None, 224, 224, 3)       0         
_________________________________________________________________
efficientnetb0 (Functional)  (None, 7, 7, 1280)        4049571   
_________________________________________________________________
global_average_pooling2d_3 ( (None, 1280)              0         
_________________________________________________________________
dropout_18 (Dropout)         (None, 1280)              0         
_________________________________________________________________
dense_21 (Dense)             (None, 512)               655872    
_________________________________________________________________
batch_normalization_12 (Batc (None, 512)               2048      
_________________________________________________________________
dropout_19 (Dropout)         (None, 512)               0         
_________________________________________________________________
dense_22 (Dense)             (None, 512)               262656    
_________________________________________________________________
batch_normalization_13 (Batc (None, 512)               2048      
_________________________________________________________________
dropout_20 (Dropout)         (None, 512)               0         
_________________________________________________________________
dense_23 (Dense)             (None, 256)               131328    
_________________________________________________________________
batch_normalization_14 (Batc (None, 256)               1024      
_________________________________________________________________
dropout_21 (Dropout)         (None, 256)               0         
_________________________________________________________________
dense_24 (Dense)             (None, 256)               65792     
_________________________________________________________________
batch_normalization_15 (Batc (None, 256)               1024      
_________________________________________________________________
dropout_22 (Dropout)         (None, 256)               0         
_________________________________________________________________
dense_25 (Dense)             (None, 256)               65792     
_________________________________________________________________
dropout_23 (Dropout)         (None, 256)               0         
_________________________________________________________________
dense_26 (Dense)             (None, 256)               65792     
_________________________________________________________________
dense_27 (Dense)             (None, 10)                2570      
=================================================================
Total params: 5,305,517
Trainable params: 1,252,874
Non-trainable params: 4,052,643
_________________________________________________________________
None
batch size: [20, 32, 32, 32]	learning rate: 0.001	max epochs: 200


items/class:  10  patience:  60
             precision recall  f1-score  support
0                0.521  0.317     0.394     1000
…
