Model: "sequential_3"
_________________________________________________________________
Layer (type)                 Output Shape              Param #   
=================================================================
up_sampling2d_3 (UpSampling2 (None, 224, 224, 3)       0         
_________________________________________________________________
efficientnetb0 (Functional)  (None, 7, 7, 1280)        4049571   
_________________________________________________________________
global_average_pooling2d_3 ( (None, 1280)              0         
_________________________________________________________________
dropout_18 (Dropout)         (None, 1280)              0         
_________________________________________________________________
dense_21 (Dense)             (None, 512)               655872    
_________________________________________________________________
dropout_19 (Dropout)         (None, 512)               0         
_________________________________________________________________
dense_22 (Dense)             (None, 512)               262656    
_________________________________________________________________
dropout_20 (Dropout)         (None, 512)               0         
_________________________________________________________________
dense_23 (Dense)             (None, 256)               131328    
_________________________________________________________________
dropout_21 (Dropout)         (None, 256)               0         
_________________________________________________________________
dense_24 (Dense)             (None, 256)               65792     
_________________________________________________________________
dropout_22 (Dropout)         (None, 256)               0         
_________________________________________________________________
dense_25 (Dense)             (None, 256)               65792     
_________________________________________________________________
dropout_23 (Dropout)         (None, 256)               0         
_________________________________________________________________
dense_26 (Dense)             (None, 256)               65792     
_________________________________________________________________
dense_27 (Dense)             (None, 10)                2570      
=================================================================
Total params: 5,299,373
Trainable params: 1,249,802
Non-trainable params: 4,049,571
_________________________________________________________________
None
batch size: [20, 32, 32, 32]	learning rate: 0.001	max epochs: 200


items/class:  10  patience:  60
             precision recall  f1-score  support
0                0.739  0.411     0.528     1000
…
