Model: "sequential_3"
_________________________________________________________________
Layer (type)                 Output Shape              Param #   
=================================================================
conv2d_18 (Conv2D)           (None, 28, 28, 64)        3200      
_________________________________________________________________
batch_normalization_3 (Batch (None, 28, 28, 64)        256       
_________________________________________________________________
max_pooling2d_3 (MaxPooling2 (None, 7, 7, 64)          0         
_________________________________________________________________
conv2d_19 (Conv2D)           (None, 7, 7, 128)         204928    
_________________________________________________________________
dropout_18 (Dropout)         (None, 7, 7, 128)         0         
_________________________________________________________________
conv2d_20 (Conv2D)           (None, 7, 7, 64)          204864    
_________________________________________________________________
dropout_19 (Dropout)         (None, 7, 7, 64)          0         
_________________________________________________________________
conv2d_21 (Conv2D)           (None, 7, 7, 64)          102464    
_________________________________________________________________
dropout_20 (Dropout)         (None, 7, 7, 64)          0         
_________________________________________________________________
conv2d_22 (Conv2D)           (None, 7, 7, 32)          100384    
_________________________________________________________________
dropout_21 (Dropout)         (None, 7, 7, 32)          0         
_________________________________________________________________
conv2d_23 (Conv2D)           (None, 7, 7, 128)         102528    
_________________________________________________________________
global_average_pooling2d_3 ( (None, 128)               0         
_________________________________________________________________
dropout_22 (Dropout)         (None, 128)               0         
_________________________________________________________________
dense_9 (Dense)              (None, 32)                4128      
_________________________________________________________________
dropout_23 (Dropout)         (None, 32)                0         
_________________________________________________________________
dense_10 (Dense)             (None, 32)                1056      
_________________________________________________________________
dense_11 (Dense)             (None, 10)                330       
=================================================================
Total params: 724,138
Trainable params: 724,010
Non-trainable params: 128
_________________________________________________________________
None
batch size: 20	learning rate: 0.001	max epochs: 350


items/class:  10  patience:  50
             precision recall  f1-score  support
0                 0.41  0.119     0.184     1000
…
6                 0.47  0.182     0.262     1000
7                0.867  0.923     0.894     1000
8                 0.91  0.949     0.929     1000
9                 0.98  0.873     0.923     1000
accuracy             -      -     0.763    10000
macro avg        0.762  0.763     0.749    10000
weighted avg     0.762  0.763     0.749    10000
mcc:  0.74
last epoch:  33

Model: "sequential_3"
_________________________________________________________________
Layer (type)                 Output Shape              Param #   
=================================================================
conv2d_18 (Conv2D)           (None, 28, 28, 64)        3200      
_________________________________________________________________
batch_normalization_15 (Batc (None, 28, 28, 64)        256       
_________________________________________________________________
max_pooling2d_3 (MaxPooling2 (None, 7, 7, 64)          0         
_________________________________________________________________
conv2d_19 (Conv2D)           (None, 7, 7, 128)         204928    
_________________________________________________________________
batch_normalization_16 (Batc (None, 7, 7, 128)         512       
_________________________________________________________________
conv2d_20 (Conv2D)           (None, 7, 7, 64)          204864    
_________________________________________________________________
batch_normalization_17 (Batc (None, 7, 7, 64)          256       
_________________________________________________________________
conv2d_21 (Conv2D)           (None, 7, 7, 64)          102464    
_________________________________________________________________
batch_normalization_18 (Batc (None, 7, 7, 64)          256       
_________________________________________________________________
conv2d_22 (Conv2D)           (None, 7, 7, 32)          100384    
_________________________________________________________________
batch_normalization_19 (Batc (None, 7, 7, 32)          128       
_________________________________________________________________
conv2d_23 (Conv2D)           (None, 7, 7, 128)         102528    
_________________________________________________________________
global_average_pooling2d_3 ( (None, 128)               0         
_________________________________________________________________
dropout_6 (Dropout)          (None, 128)               0         
_________________________________________________________________
dense_9 (Dense)              (None, 32)                4128      
_________________________________________________________________
dropout_7 (Dropout)          (None, 32)                0         
_________________________________________________________________
dense_10 (Dense)             (None, 32)                1056      
_________________________________________________________________
dense_11 (Dense)             (None, 10)                330       
=================================================================
Total params: 725,290
Trainable params: 724,586
Non-trainable params: 704
_________________________________________________________________
None
batch size: 20	learning rate: 5e-05	max epochs: 350


items/class:  10  patience:  50
             precision recall  f1-score  support
0                 0.44  0.267     0.332     1000
…
6                0.355   0.72     0.475     1000
7                0.783  0.984     0.872     1000
8                0.976  0.888     0.930     1000
9                0.965  0.881     0.921     1000
accuracy             -      -     0.725    10000
macro avg        0.813  0.725     0.713    10000
weighted avg     0.813  0.725     0.713    10000
mcc:  0.706
last epoch:  27

Model: "sequential_3"
_________________________________________________________________
Layer (type)                 Output Shape              Param #   
=================================================================
conv2d_18 (Conv2D)           (None, 28, 28, 64)        3200      
_________________________________________________________________
batch_normalization_6 (Batch (None, 28, 28, 64)        256       
_________________________________________________________________
max_pooling2d_3 (MaxPooling2 (None, 7, 7, 64)          0         
_________________________________________________________________
conv2d_19 (Conv2D)           (None, 7, 7, 128)         204928    
_________________________________________________________________
conv2d_20 (Conv2D)           (None, 7, 7, 64)          204864    
_________________________________________________________________
conv2d_21 (Conv2D)           (None, 7, 7, 64)          102464    
_________________________________________________________________
conv2d_22 (Conv2D)           (None, 7, 7, 32)          100384    
_________________________________________________________________
conv2d_23 (Conv2D)           (None, 7, 7, 128)         102528    
_________________________________________________________________
global_average_pooling2d_3 ( (None, 128)               0         
_________________________________________________________________
dropout_9 (Dropout)          (None, 128)               0         
_________________________________________________________________
dense_9 (Dense)              (None, 32)                4128      
_________________________________________________________________
batch_normalization_7 (Batch (None, 32)                128       
_________________________________________________________________
dropout_10 (Dropout)         (None, 32)                0         
_________________________________________________________________
dense_10 (Dense)             (None, 32)                1056      
_________________________________________________________________
dropout_11 (Dropout)         (None, 32)                0         
_________________________________________________________________
dense_11 (Dense)             (None, 10)                330       
=================================================================
Total params: 724,266
Trainable params: 724,074
Non-trainable params: 192
_________________________________________________________________
None
batch size: 20	learning rate: 5e-05	max epochs: 350


items/class:  10  patience:  50
             precision recall  f1-score  support
0                0.402  0.651     0.497     1000
…
6                 0.67  0.505     0.576     1000
7                0.917  0.942     0.929     1000
8                0.938  0.967     0.952     1000
9                0.971   0.93     0.950     1000
accuracy             -      -     0.842    10000
macro avg        0.848  0.842     0.838    10000
weighted avg     0.848  0.842     0.838    10000
mcc:  0.826
last epoch:  27

Model: "sequential_3"
_________________________________________________________________
Layer (type)                 Output Shape              Param #   
=================================================================
conv2d_18 (Conv2D)           (None, 28, 28, 64)        3200      
_________________________________________________________________
batch_normalization_9 (Batch (None, 28, 28, 64)        256       
_________________________________________________________________
max_pooling2d_6 (MaxPooling2 (None, 14, 14, 64)        0         
_________________________________________________________________
conv2d_19 (Conv2D)           (None, 14, 14, 128)       204928    
_________________________________________________________________
batch_normalization_10 (Batc (None, 14, 14, 128)       512       
_________________________________________________________________
max_pooling2d_7 (MaxPooling2 (None, 7, 7, 128)         0         
_________________________________________________________________
conv2d_20 (Conv2D)           (None, 7, 7, 64)          204864    
_________________________________________________________________
batch_normalization_11 (Batc (None, 7, 7, 64)          256       
_________________________________________________________________
conv2d_21 (Conv2D)           (None, 7, 7, 64)          102464    
_________________________________________________________________
conv2d_22 (Conv2D)           (None, 7, 7, 128)         204928    
_________________________________________________________________
conv2d_23 (Conv2D)           (None, 7, 7, 128)         409728    
_________________________________________________________________
global_average_pooling2d_3 ( (None, 128)               0         
_________________________________________________________________
dropout_12 (Dropout)         (None, 128)               0         
_________________________________________________________________
dense_12 (Dense)             (None, 64)                8256      
_________________________________________________________________
dropout_13 (Dropout)         (None, 64)                0         
_________________________________________________________________
dense_13 (Dense)             (None, 64)                4160      
_________________________________________________________________
dropout_14 (Dropout)         (None, 64)                0         
_________________________________________________________________
dense_14 (Dense)             (None, 64)                4160      
_________________________________________________________________
dropout_15 (Dropout)         (None, 64)                0         
_________________________________________________________________
dense_15 (Dense)             (None, 10)                650       
=================================================================
Total params: 1,148,362
Trainable params: 1,147,850
Non-trainable params: 512
_________________________________________________________________
None
batch size: [20, 32, 32, 32]	learning rate: 5e-05	max epochs: 350


items/class:  10  patience:  50
             precision recall  f1-score  support
0                0.571  0.738     0.644     1000
…
6                0.311   0.12     0.173     1000
7                0.452  0.909     0.603     1000
8                  0.9   0.92     0.910     1000
9                0.865  0.941     0.901     1000
accuracy             -      -     0.538    10000
macro avg        0.509  0.538     0.475    10000
weighted avg     0.509  0.538     0.475    10000
mcc:  0.52
last epoch:  350

Model: "sequential"
_________________________________________________________________
Layer (type)                 Output Shape              Param #   
=================================================================
conv2d (Conv2D)              (None, 28, 28, 64)        3200      
_________________________________________________________________
batch_normalization (BatchNo (None, 28, 28, 64)        256       
_________________________________________________________________
max_pooling2d (MaxPooling2D) (None, 14, 14, 64)        0         
_________________________________________________________________
conv2d_1 (Conv2D)            (None, 14, 14, 128)       204928    
_________________________________________________________________
batch_normalization_1 (Batch (None, 14, 14, 128)       512       
_________________________________________________________________
max_pooling2d_1 (MaxPooling2 (None, 7, 7, 128)         0         
_________________________________________________________________
conv2d_2 (Conv2D)            (None, 7, 7, 64)          204864    
_________________________________________________________________
conv2d_3 (Conv2D)            (None, 7, 7, 64)          102464    
_________________________________________________________________
conv2d_4 (Conv2D)            (None, 7, 7, 128)         204928    
_________________________________________________________________
conv2d_5 (Conv2D)            (None, 7, 7, 128)         409728    
_________________________________________________________________
global_average_pooling2d (Gl (None, 128)               0         
_________________________________________________________________
dropout (Dropout)            (None, 128)               0         
_________________________________________________________________
dense (Dense)                (None, 64)                8256      
_________________________________________________________________
dropout_1 (Dropout)          (None, 64)                0         
_________________________________________________________________
dense_1 (Dense)              (None, 64)                4160      
_________________________________________________________________
dropout_2 (Dropout)          (None, 64)                0         
_________________________________________________________________
dense_2 (Dense)              (None, 64)                4160      
_________________________________________________________________
dropout_3 (Dropout)          (None, 64)                0         
_________________________________________________________________
dense_3 (Dense)              (None, 10)                650       
=================================================================
Total params: 1,148,106
Trainable params: 1,147,722
Non-trainable params: 384
_________________________________________________________________
None
batch size: [24]	learning rate: 5e-05	max epochs: 350


items/class:  10  patience:  90
             precision recall  f1-score  support
0                    0      0     0.000     1000
…
6                0.133   0.03     0.049     1000
7                0.304  0.898     0.454     1000
8                0.834  0.936     0.882     1000
9                0.838  0.941     0.886     1000
accuracy             -      -     0.515    10000
macro avg        0.395  0.515     0.425    10000
weighted avg     0.395  0.515     0.425    10000
mcc:  0.489
last epoch:  350

Model: "sequential"
_________________________________________________________________
Layer (type)                 Output Shape              Param #   
=================================================================
conv2d (Conv2D)              (None, 28, 28, 64)        3200      
_________________________________________________________________
batch_normalization (BatchNo (None, 28, 28, 64)        256       
_________________________________________________________________
max_pooling2d (MaxPooling2D) (None, 14, 14, 64)        0         
_________________________________________________________________
conv2d_1 (Conv2D)            (None, 14, 14, 128)       204928    
_________________________________________________________________
batch_normalization_1 (Batch (None, 14, 14, 128)       512       
_________________________________________________________________
max_pooling2d_1 (MaxPooling2 (None, 7, 7, 128)         0         
_________________________________________________________________
conv2d_2 (Conv2D)            (None, 7, 7, 64)          204864    
_________________________________________________________________
conv2d_3 (Conv2D)            (None, 7, 7, 64)          102464    
_________________________________________________________________
conv2d_4 (Conv2D)            (None, 7, 7, 128)         204928    
_________________________________________________________________
conv2d_5 (Conv2D)            (None, 7, 7, 128)         409728    
_________________________________________________________________
global_average_pooling2d (Gl (None, 128)               0         
_________________________________________________________________
dropout (Dropout)            (None, 128)               0         
_________________________________________________________________
dense (Dense)                (None, 128)               16512     
_________________________________________________________________
dropout_1 (Dropout)          (None, 128)               0         
_________________________________________________________________
dense_1 (Dense)              (None, 64)                8256      
_________________________________________________________________
dropout_2 (Dropout)          (None, 64)                0         
_________________________________________________________________
dense_2 (Dense)              (None, 64)                4160      
_________________________________________________________________
dropout_3 (Dropout)          (None, 64)                0         
_________________________________________________________________
dense_3 (Dense)              (None, 10)                650       
=================================================================
Total params: 1,160,458
Trainable params: 1,160,074
Non-trainable params: 384
_________________________________________________________________
None
batch size: [20]	learning rate: 5e-05	max epochs: 350


items/class:  10  patience:  90
             precision recall  f1-score  support
0                0.543  0.771     0.637     1000
…
