Model: "sequential_3"
_________________________________________________________________
Layer (type)                 Output Shape              Param #   
=================================================================
up_sampling2d_3 (UpSampling2 (None, 224, 224, 3)       0         
_________________________________________________________________
efficientnetb0 (Functional)  (None, 7, 7, 1280)        4049571   
_________________________________________________________________
global_average_pooling2d_3 ( (None, 1280)              0         
_________________________________________________________________
batch_normalization_3 (Batch (None, 1280)              5120      
_________________________________________________________________
dropout_3 (Dropout)          (None, 1280)              0         
_________________________________________________________________
dense_3 (Dense)              (None, 10)                12810     
=================================================================
Total params: 4,067,501
Trainable params: 796,810
Non-trainable params: 3,270,691
_________________________________________________________________
None
batch size: [24, 32, 32, 32]	learning rate: 0.001	max epochs: 100


items/class:  10  patience:  20
             precision recall  f1-score  support
0                0.549   0.24     0.334     1000
…
