Model: "sequential_3"
_________________________________________________________________
Layer (type)                 Output Shape              Param #   
=================================================================
conv2d_18 (Conv2D)           (None, 28, 28, 64)        3200      
_________________________________________________________________
max_pooling2d_3 (MaxPooling2 (None, 7, 7, 64)          0         
_________________________________________________________________
conv2d_19 (Conv2D)           (None, 7, 7, 128)         204928    
_________________________________________________________________
conv2d_20 (Conv2D)           (None, 7, 7, 64)          204864    
_________________________________________________________________
conv2d_21 (Conv2D)           (None, 7, 7, 64)          102464    
_________________________________________________________________
conv2d_22 (Conv2D)           (None, 7, 7, 32)          100384    
_________________________________________________________________
conv2d_23 (Conv2D)           (None, 7, 7, 128)         102528    
_________________________________________________________________
flatten_3 (Flatten)          (None, 6272)              0         
_________________________________________________________________
dense_9 (Dense)              (None, 32)                200736    
_________________________________________________________________
dense_10 (Dense)             (None, 32)                1056      
_________________________________________________________________
dense_11 (Dense)             (None, 10)                330       
=================================================================
Total params: 920,490
Trainable params: 920,490
Non-trainable params: 0
_________________________________________________________________
None
batch size: 32	learning rate: 0.001	max epochs: 80


items/class:  10  patience:  10
             precision recall  f1-score  support
0                 0.27  0.854     0.411     1000
1                0.483  0.971     0.645     1000
…
