Model: "sequential_3"
_________________________________________________________________
Layer (type)                 Output Shape              Param #   
=================================================================
conv2d_18 (Conv2D)           (None, 28, 28, 64)        3200      
_________________________________________________________________
max_pooling2d_3 (MaxPooling2 (None, 7, 7, 64)          0         
_________________________________________________________________
conv2d_19 (Conv2D)           (None, 7, 7, 128)         204928    
_________________________________________________________________
conv2d_20 (Conv2D)           (None, 7, 7, 64)          204864    
_________________________________________________________________
conv2d_21 (Conv2D)           (None, 7, 7, 64)          102464    
_________________________________________________________________
conv2d_22 (Conv2D)           (None, 7, 7, 32)          100384    
_________________________________________________________________
conv2d_23 (Conv2D)           (None, 7, 7, 128)         102528    
_________________________________________________________________
flatten_3 (Flatten)          (None, 6272)              0         
_________________________________________________________________
dense_9 (Dense)              (None, 32)                200736    
_________________________________________________________________
dense_10 (Dense)             (None, 32)                1056      
_________________________________________________________________
dense_11 (Dense)             (None, 10)                330       
=================================================================
Total params: 920,490
Trainable params: 920,490
Non-trainable params: 0
_________________________________________________________________
None
batch size: 32	learning rate: 0.001	max epochs: 80


items/class:  10  patience:  10
             precision recall  f1-score  support
0                 0.27  0.854     0.411     1000
1                0.483  0.971     0.645     1000
…
6                 0.65  0.659     0.654     1000
7                 0.95   0.92     0.935     1000
8                0.968  0.967     0.967     1000
9                0.973  0.931     0.951     1000
accuracy             -      -     0.862    10000
macro avg        0.866  0.862     0.862    10000
weighted avg     0.866  0.862     0.862    10000
mcc:  0.847
last epoch:  30

Model: "sequential"
_________________________________________________________________
Layer (type)                 Output Shape              Param #   
=================================================================
conv2d (Conv2D)              (None, 28, 28, 64)        3200      
_________________________________________________________________
conv2d_1 (Conv2D)            (None, 28, 28, 128)       204928    
_________________________________________________________________
conv2d_2 (Conv2D)            (None, 28, 28, 64)        204864    
_________________________________________________________________
conv2d_3 (Conv2D)            (None, 28, 28, 64)        102464    
_________________________________________________________________
conv2d_4 (Conv2D)            (None, 28, 28, 128)       204928    
_________________________________________________________________
flatten (Flatten)            (None, 100352)            0         
_________________________________________________________________
dense (Dense)                (None, 32)                3211296   
_________________________________________________________________
dense_1 (Dense)              (None, 32)                1056      
_________________________________________________________________
dense_2 (Dense)              (None, 32)                1056      
_________________________________________________________________
dense_3 (Dense)              (None, 10)                330       
=================================================================
Total params: 3,934,122
Trainable params: 3,934,122
Non-trainable params: 0
_________________________________________________________________
None
batch size: 32	learning rate: 0.0005	max epochs: 80


items/class:  10  patience:  20
             precision recall  f1-score  support
0                  0.5  0.644     0.563     1000
…
6                0.318  0.311     0.314     1000
7                0.858  0.771     0.812     1000
8                0.862   0.82     0.841     1000
9                0.859  0.864     0.861     1000
accuracy             -      -     0.652    10000
macro avg        0.651  0.652     0.650    10000
weighted avg     0.651  0.652     0.650    10000
mcc:  0.613
last epoch:  72

Model: "sequential_3"
_________________________________________________________________
Layer (type)                 Output Shape              Param #   
=================================================================
conv2d_18 (Conv2D)           (None, 28, 28, 64)        3200      
_________________________________________________________________
conv2d_19 (Conv2D)           (None, 28, 28, 128)       204928    
_________________________________________________________________
conv2d_20 (Conv2D)           (None, 28, 28, 64)        204864    
_________________________________________________________________
conv2d_21 (Conv2D)           (None, 28, 28, 64)        102464    
_________________________________________________________________
conv2d_22 (Conv2D)           (None, 28, 28, 128)       204928    
_________________________________________________________________
conv2d_23 (Conv2D)           (None, 28, 28, 128)       409728    
_________________________________________________________________
flatten_3 (Flatten)          (None, 100352)            0         
_________________________________________________________________
dense_12 (Dense)             (None, 32)                3211296   
_________________________________________________________________
dense_13 (Dense)             (None, 32)                1056      
_________________________________________________________________
dense_14 (Dense)             (None, 32)                1056      
_________________________________________________________________
dense_15 (Dense)             (None, 10)                330       
=================================================================
Total params: 4,343,850
Trainable params: 4,343,850
Non-trainable params: 0
_________________________________________________________________
None
batch size: 32	learning rate: 0.0005	max epochs: 80


items/class:  10  patience:  50
             precision recall  f1-score  support
0                0.588  0.474     0.525     1000
…
6                0.578   0.65     0.612     1000
7                0.908  0.965     0.936     1000
8                0.931  0.949     0.940     1000
9                0.972  0.922     0.946     1000
accuracy             -      -     0.847    10000
macro avg         0.85  0.847     0.848    10000
weighted avg      0.85  0.847     0.848    10000
mcc:  0.83
last epoch:  24

Model: "sequential_3"
_________________________________________________________________
Layer (type)                 Output Shape              Param #   
=================================================================
conv2d_18 (Conv2D)           (None, 28, 28, 64)        3200      
_________________________________________________________________
conv2d_19 (Conv2D)           (None, 28, 28, 128)       204928    
_________________________________________________________________
conv2d_20 (Conv2D)           (None, 28, 28, 64)        204864    
_________________________________________________________________
conv2d_21 (Conv2D)           (None, 28, 28, 64)        102464    
_________________________________________________________________
conv2d_22 (Conv2D)           (None, 28, 28, 128)       204928    
_________________________________________________________________
conv2d_23 (Conv2D)           (None, 28, 28, 128)       409728    
_________________________________________________________________
flatten_3 (Flatten)          (None, 100352)            0         
_________________________________________________________________
dense_12 (Dense)             (None, 64)                6422592   
_________________________________________________________________
dense_13 (Dense)             (None, 64)                4160      
_________________________________________________________________
dense_14 (Dense)             (None, 64)                4160      
_________________________________________________________________
dense_15 (Dense)             (None, 10)                650       
=================================================================
Total params: 7,561,674
Trainable params: 7,561,674
Non-trainable params: 0
_________________________________________________________________
None
batch size: 32	learning rate: 0.0005	max epochs: 80


items/class:  10  patience:  50
             precision recall  f1-score  support
0                0.623  0.738     0.676     1000
…
6                0.651  0.597     0.623     1000
7                0.903  0.965     0.933     1000
8                 0.95  0.921     0.936     1000
9                0.967  0.922     0.944     1000
accuracy             -      -     0.849    10000
macro avg         0.85  0.849     0.848    10000
weighted avg      0.85  0.849     0.848    10000
mcc:  0.832
last epoch:  24

Model: "sequential_3"
_________________________________________________________________
Layer (type)                 Output Shape              Param #   
=================================================================
conv2d_18 (Conv2D)           (None, 28, 28, 64)        3200      
_________________________________________________________________
max_pooling2d_6 (MaxPooling2 (None, 14, 14, 64)        0         
_________________________________________________________________
conv2d_19 (Conv2D)           (None, 14, 14, 128)       204928    
_________________________________________________________________
max_pooling2d_7 (MaxPooling2 (None, 7, 7, 128)         0         
_________________________________________________________________
conv2d_20 (Conv2D)           (None, 7, 7, 64)          204864    
_________________________________________________________________
conv2d_21 (Conv2D)           (None, 7, 7, 64)          102464    
_________________________________________________________________
conv2d_22 (Conv2D)           (None, 7, 7, 128)         204928    
_________________________________________________________________
conv2d_23 (Conv2D)           (None, 7, 7, 128)         409728    
_________________________________________________________________
flatten_3 (Flatten)          (None, 6272)              0         
_________________________________________________________________
dense_12 (Dense)             (None, 64)                401472    
_________________________________________________________________
dense_13 (Dense)             (None, 64)                4160      
_________________________________________________________________
dense_14 (Dense)             (None, 64)                4160      
_________________________________________________________________
dense_15 (Dense)             (None, 10)                650       
=================================================================
Total params: 1,540,554
Trainable params: 1,540,554
Non-trainable params: 0
_________________________________________________________________
None
batch size: 32	learning rate: 0.0005	max epochs: 80


items/class:  10  patience:  50
             precision recall  f1-score  support
0                0.439   0.62     0.514     1000
…
