Model: "sequential_3"
_________________________________________________________________
Layer (type)                 Output Shape              Param #   
=================================================================
conv2d_18 (Conv2D)           (None, 28, 28, 64)        3200      
_________________________________________________________________
max_pooling2d_3 (MaxPooling2 (None, 7, 7, 64)          0         
_________________________________________________________________
conv2d_19 (Conv2D)           (None, 7, 7, 128)         204928    
_________________________________________________________________
conv2d_20 (Conv2D)           (None, 7, 7, 64)          204864    
_________________________________________________________________
conv2d_21 (Conv2D)           (None, 7, 7, 64)          102464    
_________________________________________________________________
conv2d_22 (Conv2D)           (None, 7, 7, 32)          100384    
_________________________________________________________________
conv2d_23 (Conv2D)           (None, 7, 7, 128)         102528    
_________________________________________________________________
flatten_3 (Flatten)          (None, 6272)              0         
_________________________________________________________________
dropout_6 (Dropout)          (None, 6272)              0         
_________________________________________________________________
dense_9 (Dense)              (None, 128)               802944    
_________________________________________________________________
dropout_7 (Dropout)          (None, 128)               0         
_________________________________________________________________
dense_10 (Dense)             (None, 64)                8256      
_________________________________________________________________
dense_11 (Dense)             (None, 10)                650       
=================================================================
Total params: 1,530,218
Trainable params: 1,530,218
Non-trainable params: 0
_________________________________________________________________
None
batch size: 20	learning rate: 0.001	max epochs: 80


items/class:  10  patience:  15
             precision recall  f1-score  support
0                0.504  0.212     0.298     1000
…
6                0.731  0.481     0.580     1000
7                0.931   0.97     0.950     1000
8                0.956  0.957     0.957     1000
9                0.969  0.965     0.967     1000
accuracy             -      -     0.864    10000
macro avg        0.867  0.863     0.861    10000
weighted avg     0.867  0.864     0.861    10000
mcc:  0.849
last epoch:  29

Model: "sequential_3"
_________________________________________________________________
Layer (type)                 Output Shape              Param #   
=================================================================
conv2d_18 (Conv2D)           (None, 28, 28, 64)        3200      
_________________________________________________________________
conv2d_19 (Conv2D)           (None, 28, 28, 128)       204928    
_________________________________________________________________
conv2d_20 (Conv2D)           (None, 28, 28, 64)        204864    
_________________________________________________________________
conv2d_21 (Conv2D)           (None, 28, 28, 64)        102464    
_________________________________________________________________
conv2d_22 (Conv2D)           (None, 28, 28, 128)       204928    
_________________________________________________________________
conv2d_23 (Conv2D)           (None, 28, 28, 128)       409728    
_________________________________________________________________
flatten_3 (Flatten)          (None, 100352)            0         
_________________________________________________________________
dropout_12 (Dropout)         (None, 100352)            0         
_________________________________________________________________
dense_12 (Dense)             (None, 64)                6422592   
_________________________________________________________________
dropout_13 (Dropout)         (None, 64)                0         
_________________________________________________________________
dense_13 (Dense)             (None, 64)                4160      
_________________________________________________________________
dropout_14 (Dropout)         (None, 64)                0         
_________________________________________________________________
dense_14 (Dense)             (None, 64)                4160      
_________________________________________________________________
dropout_15 (Dropout)         (None, 64)                0         
_________________________________________________________________
dense_15 (Dense)             (None, 10)                650       
=================================================================
Total params: 7,561,674
Trainable params: 7,561,674
Non-trainable params: 0
_________________________________________________________________
None
batch size: [20, 32, 32, 32]	learning rate: 0.0005	max epochs: 80


items/class:  10  patience:  15
             precision recall  f1-score  support
0                0.604  0.434     0.505     1000
…
6                0.509  0.661     0.575     1000
7                0.926  0.973     0.949     1000
8                0.968  0.967     0.967     1000
9                0.959  0.958     0.958     1000
accuracy             -      -     0.842    10000
macro avg         0.85  0.842     0.845    10000
weighted avg      0.85  0.842     0.845    10000
mcc:  0.825
last epoch:  35

Model: "sequential"
_________________________________________________________________
Layer (type)                 Output Shape              Param #   
=================================================================
conv2d (Conv2D)              (None, 28, 28, 64)        3200      
_________________________________________________________________
max_pooling2d (MaxPooling2D) (None, 14, 14, 64)        0         
_________________________________________________________________
conv2d_1 (Conv2D)            (None, 14, 14, 128)       204928    
_________________________________________________________________
max_pooling2d_1 (MaxPooling2 (None, 7, 7, 128)         0         
_________________________________________________________________
conv2d_2 (Conv2D)            (None, 7, 7, 64)          204864    
_________________________________________________________________
conv2d_3 (Conv2D)            (None, 7, 7, 64)          102464    
_________________________________________________________________
conv2d_4 (Conv2D)            (None, 7, 7, 128)         204928    
_________________________________________________________________
conv2d_5 (Conv2D)            (None, 7, 7, 128)         409728    
_________________________________________________________________
flatten (Flatten)            (None, 6272)              0         
_________________________________________________________________
dropout (Dropout)            (None, 6272)              0         
_________________________________________________________________
dense (Dense)                (None, 64)                401472    
_________________________________________________________________
dropout_1 (Dropout)          (None, 64)                0         
_________________________________________________________________
dense_1 (Dense)              (None, 64)                4160      
_________________________________________________________________
dropout_2 (Dropout)          (None, 64)                0         
_________________________________________________________________
dense_2 (Dense)              (None, 64)                4160      
_________________________________________________________________
dropout_3 (Dropout)          (None, 64)                0         
_________________________________________________________________
dense_3 (Dense)              (None, 10)                650       
=================================================================
Total params: 1,540,554
Trainable params: 1,540,554
Non-trainable params: 0
_________________________________________________________________
None
batch size: [24]	learning rate: 0.0001	max epochs: 80


items/class:  10  patience:  20
             precision recall  f1-score  support
0                    1  0.002     0.004     1000
…
