Model: "sequential_3"
_________________________________________________________________
Layer (type)                 Output Shape              Param #   
=================================================================
conv2d_18 (Conv2D)           (None, 28, 28, 64)        3200      
_________________________________________________________________
max_pooling2d_3 (MaxPooling2 (None, 7, 7, 64)          0         
_________________________________________________________________
conv2d_19 (Conv2D)           (None, 7, 7, 128)         204928    
_________________________________________________________________
conv2d_20 (Conv2D)           (None, 7, 7, 64)          204864    
_________________________________________________________________
conv2d_21 (Conv2D)           (None, 7, 7, 64)          102464    
_________________________________________________________________
conv2d_22 (Conv2D)           (None, 7, 7, 32)          100384    
_________________________________________________________________
conv2d_23 (Conv2D)           (None, 7, 7, 128)         102528    
_________________________________________________________________
global_average_pooling2d_3 ( (None, 128)               0         
_________________________________________________________________
dense_3 (Dense)              (None, 10)                1290      
=================================================================
Total params: 719,658
Trainable params: 719,658
Non-trainable params: 0
_________________________________________________________________
None
batch size: 32	learning rate: 0.001	max epochs: 60


items/class:  10  patience:  4
             precision recall  f1-score  support
0                0.279  0.019     0.036     1000
1                    0      0     0.000     1000
…
6                0.677  0.574     0.621     1000
7                0.907  0.983     0.943     1000
8                0.937   0.98     0.958     1000
9                 0.98   0.94     0.960     1000
accuracy             -      -     0.867    10000
macro avg        0.868  0.867     0.865    10000
weighted avg     0.868  0.867     0.865    10000
mcc:  0.853
last epoch:  20

Model: "sequential_3"
_________________________________________________________________
Layer (type)                 Output Shape              Param #   
=================================================================
conv2d_18 (Conv2D)           (None, 28, 28, 64)        3200      
_________________________________________________________________
max_pooling2d_6 (MaxPooling2 (None, 14, 14, 64)        0         
_________________________________________________________________
conv2d_19 (Conv2D)           (None, 14, 14, 128)       204928    
_________________________________________________________________
max_pooling2d_7 (MaxPooling2 (None, 7, 7, 128)         0         
_________________________________________________________________
conv2d_20 (Conv2D)           (None, 7, 7, 64)          204864    
_________________________________________________________________
conv2d_21 (Conv2D)           (None, 7, 7, 64)          102464    
_________________________________________________________________
conv2d_22 (Conv2D)           (None, 7, 7, 128)         204928    
_________________________________________________________________
conv2d_23 (Conv2D)           (None, 7, 7, 128)         409728    
_________________________________________________________________
global_average_pooling2d_3 ( (None, 128)               0         
_________________________________________________________________
dense_12 (Dense)             (None, 64)                8256      
_________________________________________________________________
dense_13 (Dense)             (None, 64)                4160      
_________________________________________________________________
dense_14 (Dense)             (None, 64)                4160      
_________________________________________________________________
dense_15 (Dense)             (None, 10)                650       
=================================================================
Total params: 1,147,338
Trainable params: 1,147,338
Non-trainable params: 0
_________________________________________________________________
None
batch size: 32	learning rate: 0.0005	max epochs: 80


items/class:  10  patience:  30
             precision recall  f1-score  support
0                0.482  0.756     0.589     1000
…
